local_distance_indicator/pretrained_local/pu1k_local/ckpt/ckpt-epoch-60.pth (torch, 453007 bytes, 299 tensors)

feature_extractor.conv_init.0.weight f4 [32, 3, 1]
0	0x3e8ad459	0.27115133
1	0x3eb85d2f	0.36008593
2	0xbedd0ac6	-0.43172282
3	0xbf1782f7	-0.5918421
4	0x3e806388	0.25075936
5	0xbe8cd65c	-0.27507293
6	0xbeb5ee58	-0.35533404
7	0xbd058ec4	-0.032606855
8	0x3e8ab450	0.27090693
9	0x3db92756	0.09040706
10	0x3f475559	0.77864605
11	0xbe9c67ee	-0.30548042
12	0x3d3706bb	0.044684153
13	0xbbf259a0	-0.007395938
14	0x3fabe201	1.3428346
15	0xbf0b6c23	-0.5446188
16	0x3ef5e5fd	0.4802703
17	0xbee510b2	-0.447393
18	0xbe50f3ac	-0.20405453
19	0x3ea49ac4	0.32149327
20	0x3ec56223	0.38551435
21	0xbc184aa2	-0.009295138
22	0xbf2d0f3f	-0.6760139
23	0xbe9deaac	-0.30843103
24	0xbf3a7678	-0.7283702
25	0xbe19cf28	-0.1502043
26	0x3d3ef388	0.04661897
27	0xbeddba2d	-0.43306103
28	0x3f2b19eb	0.6683642
29	0x3f11dc87	0.56977123
30	0xbf2731fa	-0.65310633
31	0x3e168d30	0.14702296
32	0xbe503560	-0.20332861
33	0xbe670e67	-0.22564088
34	0x3d46c89e	0.048531167
35	0xbf528674	-0.8223641
36	0xbe86dc4d	-0.2633995
37	0x3efa4c61	0.48886397
38	0xbddacb5a	-0.106833175
39	0xbdafcf97	-0.085845165
40	0x3e8b0b0b	0.27156863
41	0x3ef3539e	0.47524732
42	0x3eb103a6	0.34573096
43	0xbeb77bb7	-0.35836574
44	0xbe636fad	-0.2221057
45	0xbe7aa3be	-0.24476525
46	0xbe6a9022	-0.22906545
47	0x3f447e1e	0.7675494
48	0x3e99b477	0.30020496
49	0x3eb6f8ad	0.357366
50	0x3f0ced41	0.5504952
51	0x3e08738a	0.13325325
52	0xbdc1fccf	-0.094720475
53	0xbf028266	-0.5098022
54	0x3efb5ac1	0.49092677
55	0x3ed5e918	0.417794
56	0xbe8f247d	-0.27957526
57	0xbef086fb	-0.46977982
58	0x3e173d49	0.14769472
59	0x3e90ae9f	0.28258225
60	0x3ed61eda	0.41820413
61	0xbe5aa0da	-0.21350423
62	0x3ec537a3	0.3851901
63	0x3f2ed93e	0.68300235
64	0xbd5095ae	-0.050923996
65	0x3e0e6887	0.13907062
66	0xbc15570a	-0.00911499
67	0x3f23d266	0.6399292
68	0x3eb0c6b7	0.34526607
69	0x3e171240	0.14753056
70	0xbf3ee78e	-0.74572074
71	0x3eb87fd8	0.36035037
72	0xbeae6eb3	-0.34068832
73	0x3eeb4745	0.45952812
74	0x3d9877fa	0.07444759
75	0xbeda249a	-0.4260605
76	0xbeb53f8b	-0.35400042
77	0xbe3b90bd	-0.18316932
78	0xbeeb088d	-0.4590496
79	0xbf17ff77	-0.59374183
80	0xbf0a8d80	-0.5412216
81	0xbeb3c01a	-0.351075
82	0xbf3c2dd2	-0.73507416
83	0x3ea417b2	0.32049328
84	0xbe780eaf	-0.24224351
85	0xbe2e3f73	-0.17016391
86	0x3e905772	0.28191715
87	0x3f17e2e9	0.5933061
88	0x3eb1b334	0.34707034
89	0xbea5e2d6	-0.32399625
90	0xbdb28ab3	-0.08717861
91	0x3e68bed9	0.22729053
92	0xbf04aa91	-0.51822764
93	0xbceac8eb	-0.028660258
94	0x3ef72570	0.4827075
95	0xbe9f17d3	-0.31072864

feature_extractor.conv_init.0.bias f4 [32]
0	0x3edd4a62	0.43220812
1	0xbf22487f	-0.6339187
2	0xbeae9f73	-0.34106025
3	0xbe1db113	-0.1539958
4	0x3ef98dc4	0.4874097
5	0xbf01f9d8	-0.50771856
6	0xbe528123	-0.20557074
7	0x3c433745	0.011915033
8	0xbe7e3ecf	-0.24828647
9	0x3f069d2f	0.52583593
10	0x3f01f8d7	0.50770324
11	0x3f0e044e	0.5547532
12	0x3e88b6c4	0.2670194
13	0x3e1787b3	0.14797859
14	0x3d6466aa	0.05576197
15	0x3ea7f158	0.32801318
16	0xbecc3d08	-0.39890313
17	0x3ee93a25	0.45552173
18	0xbec5de49	-0.38646153
19	0x3e3f80a6	0.18701419
20	0x3f168b27	0.5880608
21	0x3df26808	0.11836249
22	0x3efb3f6d	0.49071828
23	0x3ee8ba80	0.45454788
24	0x3f103dce	0.56344306
25	0x3ea0dc83	0.31418237
26	0xbeee5332	-0.46547848
27	0x3f0d7c4a	0.55267775
28	0xbd89d850	-0.067307115
29	0x3e632a65	0.22184141
30	0xbc93cdd9	-0.018042492
31	0x3e843e6f	0.25828883

feature_extractor.conv_init.1.weight f4 [32]
0	0x3f369bf7	0.71331733
1	0x3f81a85a	1.0129502
2	0x3f02a33b	0.5103032
3	0x3f39ddca	0.7260405
4	0x3f1bb08a	0.6081625
5	0x3f6bc01c	0.9209001
6	0x3f009052	0.50220215
7	0x3f9cd8c0	1.2253647
8	0x3f346288	0.70462847
9	0x3edd74e4	0.43253243
10	0x3f3e6714	0.74376035
11	0x3f3381cb	0.70119923
12	0x3ec4a011	0.3840337
13	0x3f1c5762	0.61070836
14	0x3f84ebe7	1.0384492
15	0x3f5dcbf1	0.86639315
16	0x3f4bed47	0.7965893
17	0x3f4a3583	0.789879
18	0x3f7285c7	0.9473538
19	0x3f57d041	0.84302145
20	0x3f761a2b	0.9613368
21	0x3fa79208	1.309144
22	0x3f82d2bd	1.0220562
23	0x3f74e88c	0.9566734
24	0x3f2259a2	0.6341802
25	0x3f387676	0.7205576
26	0x3f908128	1.1289415
27	0x3f8b89ad	1.090139
28	0x3f1778a6	0.5916847
29	0x3f834e8c	1.0258346
30	0x3f5d56c6	0.8646053
31	0x3f167e18	0.58786154

feature_extractor.conv_init.1.bias f4 [32]
0	0xbebd5b68	-0.369838
1	0x3e6e4147	0.23267089
2	0x3b318d66	0.0027092337
3	0xbe3d694a	-0.18497196
4	0xbc92d5b9	-0.017924177
5	0xbe2a824a	-0.16651264
6	0xbd826352	-0.063666
7	0x3e3c8fa8	0.18414176
8	0xbec141e7	-0.37745592
9	0xbf17873b	-0.5919072
10	0xbe7ba410	-0.24574304
11	0xbe3e87a2	-0.18606427
12	0xbed68b3f	-0.4190311
13	0xbe5c1f72	-0.2149637
14	0xbc922079	-0.01783775
15	0x3f34cf81	0.70629126
16	0x3e9a3e44	0.3012563
17	0xbf050427	-0.5195946
18	0xbe80e5ee	-0.25175422
19	0xbdec6864	-0.115433484
20	0x3d60ce1f	0.054884072
21	0x3dfa8863	0.12233045
22	0x3e2fd24f	0.1717007
23	0xbe8637d7	-0.26214477
24	0x3bfafed5	0.007659773
25	0xbf4baa78	-0.7955699
26	0xbedcb691	-0.43108037
27	0x3c57e910	0.013178125
28	0xbece39bd	-0.40278426
29	0x3eee047f	0.46487805
30	0xbed4aff8	-0.41540504
31	0x3e94ed6c	0.2908739

feature_extractor.conv_init.1.running_mean f4 [32]
0	0x3edd7819	0.4325569
1	0xbf224981	-0.6339341
2	0xbeaeb637	-0.34123394
3	0xbe1d2e0b	-0.15349595
4	0x3ef97524	0.48722184
5	0xbf01eff6	-0.50756776
6	0xbe52737b	-0.20551865
7	0x3c3ddd3f	0.011588394
8	0xbe7e9466	-0.24861297
9	0x3f06a652	0.52597535
10	0x3f01f219	0.50760037
11	0x3f0e092b	0.5548274
12	0x3e88d08e	0.26721615
13	0x3e1794d2	0.14802864
14	0x3d643223	0.055711877
15	0x3ea7c79d	0.3276948
16	0xbecc2142	-0.39869124
17	0x3ee942ec	0.4555887
18	0xbec5a5f7	-0.38603184
19	0x3e3f62a9	0.1868998
20	0x3f1688b8	0.58802366
21	0x3df2c381	0.11853696
22	0x3efb6625	0.49101368
23	0x3ee88472	0.45413548
24	0x3f10463c	0.5635717
25	0x3ea0b47e	0.31387705
26	0xbeee86d6	-0.46587247
27	0x3f0d575e	0.55211437
28	0xbd8a484b	-0.0675207
29	0x3e639b5b	0.22227232
30	0xbc9264b1	-0.017870279
31	0x3e8465c4	0.2585889

feature_extractor.conv_init.1.running_var f4 [32]
0	0x3d4f31bf	0.05058455
1	0x3d818fa0	0.063262224
2	0x3ccd83df	0.025087295
3	0x3dc299c4	0.09501985
4	0x3e7019a1	0.23447277
5	0x3dc44d13	0.09585013
6	0x3d1ad315	0.03779896
7	0x3d9694d3	0.07352605
8	0x3d8f5432	0.06998481
9	0x3dfda1b8	0.12384361
10	0x3d80537c	0.062659234
11	0x3dc37cbb	0.09545275
12	0x3d2e5773	0.042563867
13	0x3d22af2f	0.03971785
14	0x3d1c4fee	0.038162164
15	0x3db91962	0.090380445
16	0x3d8c1128	0.0683921
17	0x3d166b23	0.036723267
18	0x3d822447	0.063545756
19	0x3d251811	0.040306155
20	0x3d45ecd2	0.048321553
21	0x3d7e38a6	0.062065743
22	0x3d8fc5f6	0.0702018
23	0x3dc2c93e	0.0951104
24	0x3d3235cd	0.04350834
25	0x3d35ebea	0.04441444
26	0x3de70154	0.1127955
27	0x3dcfd61e	0.101482615
28	0x3caed56b	0.021342
29	0x3d9662a1	0.07343031
30	0x3d30cd36	0.043164454
31	0x3d355eb7	0.04427978

feature_extractor.dense_blocks.0.0.dense_layers.0.conv_bottle.0.weight f4 [32, 32, 1]
0	0xbda87cbd	-0.08226917
1	0x3d933961	0.071886785
2	0x3e877e80	0.264637
3	0xbe910f9e	-0.28332227
4	0x3c684756	0.014177164
5	0x3d999a18	0.07500094
6	0x3e49f954	0.19724017
7	0x3e425571	0.18977906
8	0x3e0a5846	0.13510236
9	0x3df382ae	0.118901595
10	0x3e603cec	0.2189824
11	0x3d53ef68	0.051741987
12	0xbdfd180b	-0.123581015
13	0x3d6e8d59	0.05824027
14	0x3e0c99a1	0.1373048
15	0x3ebb8e6b	0.36632094
16	0xbda0fc5b	-0.07860633
17	0x3e4167b2	0.18887213
18	0xbe84ab37	-0.25911877
19	0x3e1210b6	0.14264187
20	0xbd9f3216	-0.07773225
21	0xbeaf660f	-0.34257552
22	0xbc517173	-0.012783396
23	0x3e00c1a4	0.12573868
24	0x3d09e38c	0.03366427
25	0x3e3c8d52	0.18413284
26	0x3e9d31b6	0.3070199
27	0x3ee2967e	0.4425544
28	0x3ea3a99e	0.31965345
29	0xbeff5707	-0.49871084
30	0x3cf351c3	0.029702073
31	0xbe8b0dd8	-0.27159
32	0xbbb1a4f9	-0.0054212776
33	0x3d3e40fd	0.046448696
34	0x3b984f7f	0.0046481485
35	0x3ded9a1b	0.11601659
36	0x3d8dd7f9	0.06925959
37	0x3e1226af	0.14272569
38	0x3e9d3f53	0.30712375
39	0x3d79df57	0.06100401
40	0x3dea3d6b	0.11437496
41	0xbdaf09ca	-0.08546789
42	0x3e87ad3f	0.26499364
43	0x3d34321b	0.043993097
44	0x3dd588d0	0.104264855
45	0x3e3c42d2	0.18384865
46	0x3e155dbe	0.14586541
47	0xbc932bfa	-0.017965306
48	0x3ef84e1d	0.48497096
49	0x3e4e07f4	0.20120221
50	0x3e5549ce	0.20828936
51	0x3d9c4875	0.076310076
52	0x3d7d2aa2	0.061808236
53	0x3e612237	0.21985708
54	0x3f2d38df	0.67664903
55	0x3e9f0138	0.31055617
56	0x3ee54633	0.4478012
57	0x3e07b3b5	0.13252147
58	0x3e8049fb	0.25056443
59	0x3e3160f9	0.17322148
60	0x3e23abd2	0.15983513
61	0x3e805ebc	0.25072277
62	0x3e14b5d2	0.14522484
63	0x3eccf6de	0.40032095
64	0xbe4847f0	-0.19558692
65	0x3f332ccf	0.6999025
66	0x3e1a44c5	0.15065296
67	0x3d6ccec2	0.057814367
68	0xbd9528e7	-0.07283192
69	0x3edef638	0.43547225
70	0x3ca8cf15	0.020606557
71	0x3e005c5f	0.12535237
72	0x3ee2689c	0.44220436
73	0xbc31a9b6	-0.010843685
74	0x3f10fede	0.56638896
75	0xbd656774	-0.056006864
76	0x3e1250b0	0.14288592
77	0xbdc18e84	-0.09451011
78	0xbe8ef2bb	-0.27919564
79	0x3d8ea0b8	0.069642484
80	0x3ddc631c	0.10761091
81	0xbeb521d5	-0.35377374
82	0xbe0e3144	-0.13885981
83	0x3e4219fa	0.18955222
84	0xbd0e67eb	-0.034767073
85	0xbdda880f	-0.10670482
86	0x3bf956bb	0.007609216
87	0xbe252181	-0.16126062
88	0x3e6dbe59	0.23217143
89	0x3e53678b	0.20644967
90	0xbd38217a	-0.0449538
91	0x3d850266	0.06494598
92	0x3e455153	0.19269304
93	0xbbc55f71	-0.0060233404
94	0x3e28fc38	0.16502464
95	0x3e0c594c	0.13705939
96	0xbe537425	-0.20649774
97	0x3de8dc3d	0.11370132
98	0x3d66d7e2	0.056358226
99	0xbdfd0d4d	-0.123560525
100	0x3de018ef	0.10942256
101	0xbdbb0b3c	-0.09133002
102	0x3e2c64f6	0.16835389
103	0x3ee64a28	0.44978452
104	0x3daa62fb	0.0831966
105	0xbe02874c	-0.12746924
106	0xbd31e008	-0.043426543
107	0xbc310120	-0.010803491
108	0xbdaf2f29	-0.08553917
109	0x3cf4673f	0.029834388
110	0x3e354945	0.17703731
111	0xbcbd2c7f	-0.023092506
112	0x3e534498	0.20631635
113	0x3dc21153	0.094759606
114	0xbe66888e	-0.22513029
115	0xbca6961e	-0.020335253
116	0x3d154e74	0.03645177
117	0xbe421a0b	-0.18955247
118	0x3e80076e	0.25005668
119	0x3e97f1b1	0.29676583
120	0x3e87eb6f	0.2654681
121	0x3ec1f02b	0.37878546
122	0x3ec7583e	0.3893451
123	0x3f0666b9	0.5250049
124	0x3e3ce0d9	0.18445148
125	0xbc428ff6	-0.011875143
126	0xbd6df41f	-0.05809414
127	0x3e144bfe	0.14482114
128	0x3f1bd65b	0.60873955
129	0xbb99730b	-0.0046829036
130	0x3bbd7b03	0.0057824864
131	0x3e8be15c	0.27320373
132	0x3cbe4c8e	0.023229863
133	0x3e0d1a3b	0.13779537
134	0x3df1f254	0.118137985
135	0xbe1283ee	-0.1430814
136	0x3d0be3a4	0.034152642
137	0x3e3537b4	0.1769703
138	0x3e134b37	0.14384161
139	0x3ea35302	0.31899267
140	0x3caad166	0.020851802
141	0x3defef5c	0.11715576
142	0xbd5bef07	-0.05369475
143	0x3d2c6a41	0.04209352
144	0xbdbc011c	-0.09179899
145	0xbda46999	-0.08027954
146	0x3e50220b	0.20325486
147	0x3dbfb9cb	0.09361609
148	0x3d402757	0.046912517
149	0xbd692b12	-0.05692584
150	0xbe46880f	-0.1938784
151	0x3d2d04bb	0.04224084
152	0x3ce19cef	0.027540652
153	0xbbcdac52	-0.0062766457
154	0xbdec91f9	-0.115512796
155	0xbe510bff	-0.20414732
156	0xbe419f77	-0.18908487
157	0x3edc2728	0.42998624
158	0x3f387366	0.72051084
159	0x3ec92220	0.39283848
160	0x3d999319	0.0749876
161	0x3ecbdc93	0.39816722
162	0x3e52c5e1	0.20583297
163	0x3dfbfaf0	0.12303722
164	0x3c2f06e1	0.010682792
165	0x3eecfc9c	0.46286476
166	0x3de32363	0.11090734
167	0x3e45c71f	0.1931424
168	0x3dc0dbf3	0.09416952
169	0x3c17b98d	0.009260547
170	0x3e8c7f3e	0.27440828
171	0x3f3110d1	0.69166285
172	0x3d95b3d7	0.07309692
173	0x3b237279	0.0024940057
174	0x3e42417c	0.18970293
175	0xbe133f9d	-0.14379735
176	0xbe240801	-0.16018678
177	0x3c7c75b4	0.015408922
178	0xbe1e429f	-0.15455101
179	0x3e31c363	0.1735969
180	0xbba41423	-0.0050072833
181	0x3d05019f	0.03247225
182	0xbd91953e	-0.07108544
183	0x3e61dcd9	0.22056903
184	0x3d83be9a	0.06432839
185	0x3eb185c5	0.3467237
186	0x3e67d56c	0.22640008
187	0x3c266896	0.010156771
188	0xbd71e948	-0.059060365
189	0x3c78762a	0.015164891
190	0x3e7183fd	0.23585506
191	0x3e5f3dee	0.21800968
192	0xbe113428	-0.14180052
193	0xbde78329	-0.11304314
194	0x3e152f71	0.14568879
195	0xbd975433	-0.073891066
196	0xbc89e50a	-0.016832847
197	0xbe53fb19	-0.20701255
198	0x3d5cafae	0.05387848
199	0x3e553361	0.20820381
200	0xbc8f7ee6	-0.017516565
201	0x3dd09050	0.101837754
202	0xbae6b2f3	-0.0017600938
203	0x3bb0165b	0.0053737587
204	0xbcc2aee4	-0.023765035
205	0x3e3062b9	0.1722516
206	0xbd8fef4b	-0.070280634
207	0x3e0f5f7e	0.14001271
208	0x3d3b6422	0.04574979
209	0x3e33194d	0.1749012
210	0xbec71231	-0.38881066
211	0x3bf55241	0.007486612
212	0xbd42178d	-0.04738574
213	0x3e13c2ea	0.14429823
214	0x3e2c3c3f	0.16819857
215	0x3f09b107	0.5378575
216	0xbdd42bb1	-0.10359896
217	0x3e83a09d	0.25708476
218	0x3e86df1d	0.26342097
219	0x3f2b5907	0.6693272
220	0x3e5472db	0.20746939
221	0xbe64b5e0	-0.22335005
222	0xbe3b2104	-0.18274313
223	0xbed23022	-0.41052347
224	0x3d0c6a7a	0.03428123
225	0xbdcc673b	-0.09980627
226	0x3d78073e	0.06055378
227	0xbe1c0ecd	-0.15240021
228	0x3d87dadf	0.06633543
229	0xbe71ed4f	-0.23625682
230	0x3d471c38	0.048610896
231	0x3f430f10	0.7619486
232	0x3d96dc11	0.07366193
233	0xbe53b8d9	-0.20675983
234	0x3d8b7766	0.06809883
235	0xbe16941e	-0.1470494
236	0xbe216a9a	-0.15763322
237	0xbe4a4af0	-0.19755149
238	0x3f044473	0.51666945
239	0xbe09f0c8	-0.13470757
240	0xbe24ae83	-0.16082196
241	0x3e09b12c	0.13446492
242	0x3dce719c	0.10080263
243	0xbe254e7a	-0.16143218
244	0x3da5d42f	0.080971114
245	0x3db419a0	0.0879395
246	0xbd193c2a	-0.037410893
247	0x3c737073	0.014858353
248	0xbcebd62c	-0.028788649
249	0x3d11cd97	0.035596456
250	0x3e367ebd	0.17821784
251	0x3dc6173c	0.096724
252	0x3c618395	0.013764282
253	0xbd602b98	-0.054729074
254	0xbe2bec2c	-0.16789311
255	0xbebc16aa	-0.3673604

feature_extractor.dense_blocks.0.0.dense_layers.0.conv_bottle.0.bias f4 [32]
0	0xbe0d49be	-0.13797662
1	0xbdcb8281	-0.09937001
2	0x3e0e19b2	0.1387699
3	0xbd91a29d	-0.07111094
4	0x3d57e63b	0.0527098
5	0x3dd682c5	0.10474161
6	0x3c55da89	0.013052591
7	0x3db779e3	0.08958795
8	0x3de1d57d	0.11027048
9	0x3df83c0c	0.12120828
10	0x3e020fb3	0.12701301
11	0x3df3b204	0.11899188
12	0xbd9cd68d	-0.0765811
13	0xbdc5731c	-0.09641096
14	0x3cc605e8	0.024172738
15	0x3d47d311	0.048785273
16	0x3e23be46	0.15990552
17	0x3dbddaaa	0.092702225
18	0x3d009867	0.031395342
19	0xbd7e8ab9	-0.062144015
20	0x3d767868	0.060173422
21	0xbdf15a95	-0.11784855
22	0xbafcdb74	-0.0019291476
23	0xbe0f9cff	-0.14024733
24	0x3ccb8f83	0.024848705
25	0x3dc38308	0.095464766
26	0x3dfc3c56	0.12316196
27	0xbe1c0e4d	-0.1523983
28	0x3e43a993	0.19107656
29	0xbda5e220	-0.080997705
30	0x3e1ec1a1	0.15503551
31	0xbd5a4b3a	-0.053294398

feature_extractor.dense_blocks.0.0.dense_layers.0.conv_bottle.1.weight f4 [32]
0	0x3f7b6c19	0.9821182
1	0x3fa525fe	1.2902219
2	0x3f7d4d95	0.98946506
3	0x3f815c22	1.0106242
4	0x3f64e3b2	0.89409935
5	0x3f824e92	1.0180228
6	0x3f5b7f3a	0.8574101
7	0x3f571b44	0.8402598
8	0x3f69f788	0.9139333
9	0x3f4f0acb	0.80875844
10	0x3f494a22	0.7862874
11	0x3f8a5be6	1.0809295
12	0x3f51b5b1	0.81917864
13	0x3f648ed0	0.89280415
14	0x3f5a83cf	0.85357374
15	0x3fa92759	1.3215133
16	0x3f02cd4f	0.51094526
17	0x3f882fde	1.0639608
18	0x3fa9e84e	1.3274019
19	0x3f473911	0.7782145
20	0x3f567fd6	0.8378881
21	0x3f5ebefc	0.8701017
22	0x3f63fada	0.89054644
23	0x3f5cbddc	0.862272
24	0x3f8463f6	1.0343006
25	0x3f4c0123	0.79689234
26	0x3f51c298	0.8193755
27	0x3f942e32	1.1576598
28	0x3f6137c4	0.87975717
29	0x3f20386c	0.6258609
30	0x3f8197d8	1.0124464
31	0x3f177071	0.59155947

feature_extractor.dense_blocks.0.0.dense_layers.0.conv_bottle.1.bias f4 [32]
0	0xbde95ee8	-0.11395055
1	0x3e35a0f2	0.17737177
2	0x3e073eae	0.13207504
3	0xbfb027cf	-1.3762149
4	0xbe013502	-0.12617877
5	0xbe0f8db4	-0.14018899
6	0xbea445f0	-0.32084608
7	0xbe32ed66	-0.17473373
8	0xbf107f7b	-0.5644452
9	0x3c50cb88	0.012743838
10	0xbd5f9a60	-0.054590583
11	0x3aa09ca6	0.0012253716
12	0x3e11d6e2	0.14242128
13	0xbecdc00b	-0.4018558
14	0xbb87e7e4	-0.0041475166
15	0x3f0d7ce3	0.55268687
16	0xbf3ad436	-0.7298006
17	0xbd0b08eb	-0.03394405
18	0x3ed45a5a	0.41475183
19	0x3c438ed5	0.011935909
20	0xbf0541a8	-0.5205331
21	0xbd89c073	-0.0672616
22	0xbedda911	-0.4329305
23	0x3e431af8	0.19053257
24	0xbe129058	-0.14312875
25	0x3e883bd5	0.26608148
26	0xbc935c78	-0.017988428
27	0x3e638a48	0.22220719
28	0x3cf95cb9	0.030439721
29	0xbe4c1172	-0.1992853
30	0xbeedf366	-0.4647476
31	0xbfafd666	-1.3737304

feature_extractor.dense_blocks.0.0.dense_layers.0.conv_bottle.1.running_mean f4 [32]
0	0x3dee272a	0.11628564
1	0x3fe9d658	1.8268538
2	0x3f681d72	0.9066993
3	0x3f71bfb2	0.9443313
4	0x3f2fd3d1	0.6868258
5	0x3f86aff2	1.0522444
6	0x3ec59420	0.38589573
7	0x3eb19267	0.3468201
8	0x3f71f712	0.94517624
9	0x3c3aa436	0.01139169
10	0xbe93ac84	-0.28842556
11	0x3fad1b37	1.352393
12	0xbf89b35a	-1.0757859
13	0x3f25bb7b	0.647392
14	0xbfbc2992	-1.4700186
15	0xbfd1549c	-1.6353946
16	0x3f0ff86d	0.5623844
17	0x3fa173ec	1.2613502
18	0xc007df05	-2.122987
19	0xbe894507	-0.26810476
20	0x3f8ac947	1.0842675
21	0x3daf4488	0.08557993
22	0x3fcc7924	1.5974469
23	0xbf6e9355	-0.9319356
24	0x3f2b4609	0.6690374
25	0xbf0bac98	-0.5456023
26	0xbe377f17	-0.17919575
27	0xc011294d	-2.2681458
28	0xbedcf1a6	-0.43153113
29	0xbf17abb3	-0.5924637
30	0x3f553ffb	0.8330075
31	0x3f7b0f94	0.98070645

feature_extractor.dense_blocks.0.0.dense_layers.0.conv_bottle.1.running_var f4 [32]
0	0x400fd4ea	2.2473702
1	0x3f767e4c	0.96286464
2	0x3fd03a38	1.6267767
3	0x3f577c92	0.84174454
4	0x3f92e4ce	1.1476076
5	0x3f8eed1e	1.1166112
6	0x3fde8161	1.7383233
7	0x3fc998ae	1.5749719
8	0x3fb64c7d	1.4242092
9	0x400332e2	2.0499806
10	0x40147adf	2.3199995
11	0x3fd7a622	1.6847575
12	0x401a79d6	2.4136863
13	0x3fb825a3	1.4386486
14	0x4002bd9d	2.042823
15	0x3f055400	0.520813
16	0x3f4d2f50	0.8015032
17	0x3fa8559e	1.3151128
18	0x3fa8a110	1.3174152
19	0x3ff9a100	1.9502258
20	0x3f8d336f	1.1031321
21	0x3fb012e4	1.3755765
22	0x3f75fe37	0.96091026
23	0x40379155	2.8682454
24	0x3fb67a09	1.4255992
25	0x40054c65	2.0827878
26	0x4006ad6f	2.1043355
27	0x3fdc006c	1.7187629
28	0x3fe8de44	1.819283
29	0x3fa5157f	1.2897185
30	0x3fb8d19a	1.4438965
31	0x3f4d3662	0.80161107

feature_extractor.dense_blocks.0.0.dense_layers.0.point_conv.conv_delta.0.weight f4 [32, 3, 1, 1]
0	0xbdbc6c61	-0.09200359
1	0x3f46a6da	0.77598345
2	0x3e94b2cc	0.2904266
3	0xbdcd84fd	-0.10035131
4	0xbdfbfd24	-0.12304142
5	0xbeb06865	-0.34454647
6	0xbf1e2b41	-0.6178475
7	0x3e105053	0.14093141
8	0xbeb00951	-0.34382108
9	0x3f0f009a	0.5586029
10	0x3e530bd5	0.20609982
11	0xbed1581d	-0.40887538
12	0x3f06dc6a	0.52680075
13	0xbe8f9135	-0.28040472
14	0x3df44761	0.11927677
15	0x3d8a7470	0.0676049
16	0x3d2f44d0	0.042790234
17	0x3f84a3ca	1.0362484
18	0xbf302e57	-0.6882071
19	0x3eb7e6d0	0.35918283
20	0xbd27b754	-0.04094632
21	0x3e3083e1	0.17237808
22	0xbefd6b4c	-0.49495924
23	0x3f59df81	0.85106665
24	0xbe0270c1	-0.12738325
25	0x3e77b36e	0.2418954
26	0xbdb47f35	-0.08813325
27	0x3f082c64	0.53192735
28	0xbf09a12b	-0.5376155
29	0x3c5e30d3	0.013561445
30	0x3efa1f5d	0.48852053
31	0x3e2f0485	0.17091568
32	0xbf0caf58	-0.54955053
33	0xbf0a0a2c	-0.5392177
34	0xbe8a3182	-0.26990896
35	0x3f123c5b	0.57123345
36	0xbe2c20d0	-0.16809392
37	0xbf101c6a	-0.56293356
38	0xbe6c9b6a	-0.23106161
39	0xbd9b21b7	-0.0757479
40	0xbf0ac05a	-0.54199755
41	0xbf18c351	-0.5967303
42	0x3da978d8	0.08275002
43	0xbf09dd19	-0.53852993
44	0xbe269d0f	-0.1627085
45	0x3e9157ea	0.28387386
46	0xbd962e1d	-0.07333014
47	0x3e9269a0	0.2859621
48	0x3c81be56	0.01583783
49	0x3f41f279	0.7576061
50	0x3e4caa01	0.19986726
51	0xbe609741	-0.21932699
52	0xbeff6fb4	-0.4988991
53	0xbbabf915	-0.0052481988
54	0xbf19b116	-0.60035837
55	0xbe90992b	-0.28241858
56	0x3ebc35f4	0.36759913
57	0x3ed0d58f	0.40787932
58	0x3ca21352	0.019784603
59	0xbefcc94f	-0.49372336
60	0x3c9aaca6	0.018881153
61	0xbf80f061	-1.0073358
62	0xbd264696	-0.04059466
63	0x3e578706	0.21047601
64	0x3e961c52	0.29318482
65	0xbe812556	-0.25223798
66	0x3db1b54c	0.08677158
67	0x3f235466	0.63800657
68	0x3e944c21	0.28964332
69	0xbed4ac1e	-0.41537565
70	0xbea6ea21	-0.326005
71	0xbf0a6190	-0.5405512
72	0x3ed25426	0.41079825
73	0x3e331835	0.17489703
74	0xbebf09cf	-0.3731217
75	0xbee92e28	-0.45543027
76	0x3e2cf4df	0.16890286
77	0xbea03ebb	-0.3129786
78	0xbe0bf66f	-0.13668226
79	0x3de759f9	0.11296458
80	0xbf4ea6ec	-0.8072345
81	0xbd6cbd74	-0.057797864
82	0x3ea732d7	0.32655975
83	0x3f0db385	0.5535205
84	0x3f092bcb	0.5358245
85	0x3e76e206	0.24109659
86	0xbe275aa3	-0.16343169
87	0x3eb1353e	0.34610933
88	0xbe8db7eb	-0.2767938
89	0x3f080a97	0.5314116
90	0xbed0d641	-0.40788463
91	0xbe7cc437	-0.24684225
92	0xbe81434b	-0.25246653
93	0x3f1a5f60	0.6030178
94	0xbe839f46	-0.25707453
95	0x3e3e6774	0.18594152

feature_extractor.dense_blocks.0.0.dense_layers.0.point_conv.conv_delta.0.bias f4 [32]
0	0x3d872c94	0.066002995
1	0x3d541ba9	0.05178419
2	0x3e65159c	0.22371525
3	0x3e597e1e	0.21239516
4	0xbe1b7e9b	-0.15185015
5	0xbd8e163f	-0.06937837
6	0x3ef26c04	0.47348034
7	0x3e4fad83	0.20281033
8	0xbe805ee1	-0.25072387
9	0x3f08ad45	0.5338939
10	0x3e88848e	0.2666363
11	0xbdfd0354	-0.123541504
12	0xbe41fa46	-0.18943128
13	0xbc4ad6c6	-0.012380308
14	0xbf433ed5	-0.7626775
15	0x3d6f26e1	0.058386687
16	0xbe6c1016	-0.23053011
17	0xbd961337	-0.07327884
18	0xbe7064c2	-0.23475936
19	0xbe3143a4	-0.17310959
20	0xbdb4d5e5	-0.0882986
21	0x3e22253e	0.1583452
22	0xbf3e42a5	-0.7432044
23	0x3ebe8af7	0.37215397
24	0x3db6ec12	0.089317456
25	0x3ddbdb89	0.107352324
26	0x3f0c74bc	0.5486562
27	0xbe9ac18c	-0.3022579
28	0xbe2e62ea	-0.1702992
29	0x3d54a1df	0.051912185
30	0xbe4ac468	-0.19801486
31	0xbec67a34	-0.3876511

feature_extractor.dense_blocks.0.0.dense_layers.0.point_conv.conv_delta.1.weight f4 [32]
0	0x3f858317	1.043063
1	0x3f8ee0e5	1.1162382
2	0x3f739e89	0.9516378
3	0x3f8be123	1.0928081
4	0x3f7028ea	0.9381243
5	0x3f895e4f	1.0731906
6	0x3f79afa4	0.9753363
7	0x3f5d1d56	0.8637289
8	0x3f6fef01	0.93724066
9	0x3f568886	0.8380207
10	0x3f8015f4	1.00067
11	0x3f869d8a	1.0516827
12	0x3f7e2eb7	0.9929003
13	0x3f8f42c6	1.1192253
14	0x3f7e38da	0.993055
15	0x3f82eeb3	1.0229095
16	0x3f70b502	0.94026196
17	0x3f76b6a3	0.9637243
18	0x3f87cee8	1.0610018
19	0x3f78151e	0.9690722
20	0x3f8e3f13	1.1112999
21	0x3f90a5ca	1.1300595
22	0x3fa415b2	1.2819121
23	0x3f723c19	0.9462295
24	0x3f91f333	1.1402344
25	0x3f8b378c	1.0876327
26	0x3f739583	0.9515001
27	0x3f7b62a7	0.98197407
28	0x3f7b6f49	0.9821668
29	0x3f4113d0	0.75420856
30	0x3f74b51b	0.95588845
31	0x3f9812ad	1.1880699

feature_extractor.dense_blocks.0.0.dense_layers.0.point_conv.conv_delta.1.bias f4 [32]
0	0x3e52e8ad	0.20596571
1	0x3e38f90e	0.18063757
2	0xbecaefdd	-0.39636126
3	0xbd9c2a95	-0.076253094
4	0xbe3ec330	-0.18629146
5	0x3d413d88	0.04717782
6	0xbd497151	-0.049180333
7	0x3d096ba3	0.033549916
8	0x3d4d6e64	0.050154105
9	0xbef1193b	-0.47089562
10	0x3e24fd3e	0.16112229
11	0xbe2033d8	-0.15644777
12	0xbc057ad8	-0.008146964
13	0xbd37405b	-0.04473911
14	0xbe40dac6	-0.18833455
15	0xbe040cb1	-0.12895466
16	0xbceee56a	-0.029162128
17	0xbe3d49ed	-0.18485232
18	0x3dd51f2a	0.10406335
19	0xbebd8411	-0.3701482
20	0x3dc60dd2	0.09670605
21	0xbcbea5a5	-0.023272345
22	0x3e59f91e	0.21286437
23	0xbeb16818	-0.3464973
24	0x3e29c9ff	0.16580962
25	0x3dd0e669	0.10200197
26	0x3e1a0183	0.15039639
27	0xbe50b74c	-0.20382422
28	0xbe5dda28	-0.21665251
29	0xbebc9d84	-0.36838925
30	0x3e117bae	0.14207336
31	0x3df531f5	0.11972419

feature_extractor.dense_blocks.0.0.dense_layers.0.point_conv.conv_delta.1.running_mean f4 [32]
0	0x3d872844	0.06599477
1	0x3d542aa5	0.05179848
2	0x3e650f51	0.22369124
3	0x3e5994f8	0.21248233
4	0xbe1b76ec	-0.15182084
5	0xbd8e3ca4	-0.0694516
6	0x3ef265ca	0.47343284
7	0x3e4f9c6a	0.20274511
8	0xbe805e89	-0.25072125
9	0x3f08af42	0.5339242
10	0x3e889077	0.26672718
11	0xbdfd37b9	-0.12364144
12	0xbe41fdbd	-0.1894445
13	0xbc4a7270	-0.012356386
14	0xbf433e88	-0.7626729
15	0x3d6f27bb	0.0583875
16	0xbe6c0e05	-0.23052223
17	0xbd9624c4	-0.07331231
18	0xbe707c50	-0.23484921
19	0xbe312ff4	-0.17303449
20	0xbdb4e2aa	-0.08832295
21	0x3e22317c	0.1583919
22	0xbf3e4264	-0.74320054
23	0x3ebe8a66	0.37214965
24	0x3db710fe	0.08938788
25	0x3ddbd5ae	0.107341155
26	0x3f0c7841	0.5487099
27	0xbe9ac699	-0.30229643
28	0xbe2e514e	-0.17023203
29	0x3d548e55	0.05189355
30	0xbe4aca9c	-0.19803852
31	0xbec6760f	-0.38761947

feature_extractor.dense_blocks.0.0.dense_layers.0.point_conv.conv_delta.1.running_var f4 [32]
0	0x3b192725	0.002336928
1	0x39fe4700	0.00048499554
2	0x3ae4f890	0.0017469097
3	0x3ae48cdb	0.0017436998
4	0x3aa26b21	0.0012391546
5	0x3b6e9d95	0.0036409844
6	0x3b042423	0.002016314
7	0x3b5e0111	0.0033875147
8	0x39920cc3	0.00027856798
9	0x3afae98b	0.0019143088
10	0x3af9db2c	0.0019062511
11	0x3b177dca	0.0023115748
12	0x3ab0467c	0.001344874
13	0x3b10638f	0.0022031998
14	0x3a8e8d0f	0.0010875779
15	0x3a146793	0.0005661186
16	0x3b07b75d	0.0020708658
17	0x3a83b578	0.0010048589
18	0x3afc64d3	0.0019256122
19	0x3ab37a77	0.0013693114
20	0x3b6125c4	0.0034354785
21	0x3a2ba676	0.0006547937
22	0x3adc2a1e	0.001679722
23	0x3afc6c91	0.001925843
24	0x3a947ec2	0.0011329281
25	0x3a93582e	0.001124149
26	0x3b174e3f	0.002308741
27	0x3ab6e845	0.001395472
28	0x3aa32d82	0.0012449475
29	0x3ad4708d	0.0016207859
30	0x3a807c94	0.0009802752
31	0x3acbcda4	0.0015548957

feature_extractor.dense_blocks.0.0.dense_layers.0.point_conv.conv_feats.0.weight f4 [32, 32, 1, 1]
0	0xbe1f6ec3	-0.15569596
1	0x3f146745	0.57970077
2	0x3d4122a8	0.04715219
3	0xbe386691	-0.18007876
4	0xbe3cb964	-0.18430096
5	0xbe318b0d	-0.173382
6	0xbe299e5a	-0.16564313
7	0xbebb3497	-0.3656356
8	0xbe62cbda	-0.22148076
9	0xbe195e0c	-0.14977282
10	0x3da87797	0.08225935
11	0x3e8bcdb5	0.2730538
12	0xbeed2108	-0.46314263
13	0xbdbcce07	-0.09218984
14	0xbdec5868	-0.115403
15	0xbc4c74ba	-0.012479002
16	0x3ee14186	0.43995303
17	0xbd23b858	-0.039970726
18	0x3bd370be	0.006452649
19	0xbe983cf2	-0.29733998
20	0xbd33aa2e	-0.043863468
21	0xbe2cd429	-0.16877808
22	0x3dda8789	0.106703825
23	0xbe9709c0	-0.29499626
24	0xbe3726cc	-0.17885894
25	0x3eb92565	0.36161342
26	0x3e07efd3	0.1327508
27	0xbe25efc5	-0.16204746
28	0xbe27c695	-0.16384347
29	0xbe72c323	-0.23707251
30	0x3d0e603f	0.034759756
31	0xbe04e310	-0.12977242
32	0xbdb087f7	-0.08619683
33	0xbe676307	-0.2259637
34	0xbc657393	-0.014004606
35	0x3e0d615c	0.13806671
36	0xba0a4660	-0.0005274769
37	0x3da23ad0	0.07921374
38	0xbdf7a0c9	-0.12091214
39	0x3e895742	0.26824385
40	0xbb90a887	-0.0044146213
41	0xbe1672ea	-0.14692274
42	0xbd199ff7	-0.03750607
43	0xbea0e4f4	-0.31424677
44	0xbdfe2381	-0.124091156
45	0x3e4deed0	0.20110631
46	0x3e3b20b9	0.18274201
47	0x3c519cdc	0.012793746
48	0xbe32970f	-0.17440437
49	0xbea1ffb5	-0.316404
50	0x3ec71734	0.3888489
51	0x3ef432da	0.47695047
52	0x3e989bf1	0.29806474
53	0xbe28a3c7	-0.16468726
54	0xbe2ec292	-0.1706641
55	0xbee7310d	-0.4515461
56	0x3e48304a	0.19549671
57	0x3c058726	0.008149898
58	0xbe1e9105	-0.15485008
59	0x3ea44de9	0.3209069
60	0x3ec60cd7	0.3868167
61	0x3e20e412	0.15712002
62	0xbd764f18	-0.060134023
63	0x3e9ac872	0.30231053
64	0x3d46d3c6	0.048541807
65	0x3dc4529c	0.09586069
66	0xbf1e995d	-0.61952764
67	0xbd14b04e	-0.03630095
68	0x3d306cd4	0.043072537
69	0xbea168d7	-0.315253
70	0x3e77ddb2	0.24205664
71	0x3e02743d	0.12739654
72	0x3e92ae11	0.28648427
73	0x3e2132bb	0.15742008
74	0x3e9bd8e0	0.304389
75	0x3d929c8f	0.071587674
76	0x3e8d8672	0.27641636
77	0x3e3077cf	0.17233203
78	0x3d8565fe	0.06513594
79	0xbea8f57f	-0.329998
80	0xbcd1dc09	-0.025617616
81	0x3ea7d8d8	0.32782626
82	0xbeabe8a7	-0.33575937
83	0x3dc1db75	0.09465686
84	0xbcce3422	-0.025171343
85	0x3dd86eb0	0.10567987
86	0x3e4a0014	0.19726592
87	0x3d954eac	0.07290396
88	0x3e70833b	0.2348756
89	0xbde1fb5b	-0.110342704
90	0x3e0e313b	0.13885967
91	0xbe25a092	-0.16174534
92	0xbcceaa8f	-0.025227813
93	0x3dc3241f	0.09528374
94	0x3d7c480f	0.061592158
95	0x3d9a9cfd	0.075494744
96	0xbf00bc19	-0.50287014
97	0x3ecdda80	0.40205765
98	0xbe74dfda	-0.23913518
99	0x3d943fb5	0.07238714
100	0xbe0fea7d	-0.14054294
101	0x3d16ead2	0.036845036
102	0xbe326521	-0.1742139
103	0x3e254256	0.16138586
104	0x3d919b39	0.071096845
105	0xbf03e311	-0.5151835
106	0x3e7a1aa5	0.24424227
107	0xbe1382c1	-0.14405347
108	0xbcf473ce	-0.029840376
109	0xbe1b7650	-0.15181851
110	0x3d0c4b8b	0.03425173
111	0x3d41efa1	0.04734767
112	0x3cd6af7c	0.026206724
113	0xbd55e7f6	-0.05222317
114	0xbe685061	-0.22686912
115	0xbccb3b68	-0.0248086
116	0x3d78c4e5	0.06073465
117	0x3ebf2be7	0.37338182
118	0x3db122d2	0.086492196
119	0x3de0bb4e	0.109732255
120	0x3df0509e	0.117341265
121	0xbc62d846	-0.013845509
122	0xbe3b1947	-0.18271361
123	0xbea6d1b6	-0.32581872
124	0x3bd1e36a	0.0064052837
125	0x3d9b12c0	0.07571936
126	0xbf1a2ba8	-0.60222864
127	0x3d78ee4b	0.06077413
128	0x3bd2a7dc	0.006428702
129	0xbe23e499	-0.16005172
130	0x3c09f16b	0.008419375
131	0xbe97be10	-0.29637194
132	0x3da5a3bb	0.0808787
133	0xbdb403ae	-0.08789764
134	0xbe2dc939	-0.16971292
135	0xbe770b50	-0.24125409
136	0xbf04b287	-0.5183491
137	0xbe3a6e8e	-0.18206236
138	0xbf2b645e	-0.66950023
139	0xbd856a58	-0.06514424
140	0xbe4e76b6	-0.20162472
141	0x3d382f29	0.04496685
142	0xbe954349	-0.29152897
143	0xbe0bf8a0	-0.13669062
144	0xbe8d48d6	-0.27594632
145	0xbde263d2	-0.110541955
146	0xbe02e39d	-0.1278214
147	0x3da6d94d	0.081469156
148	0xbd8ed3b5	-0.06973974
149	0xbf21b12e	-0.6316098
150	0xbf22a925	-0.63539344
151	0xbcbc50e9	-0.0229878
152	0xbf2892b6	-0.65848863
153	0xbc630bf9	-0.013857835
154	0xbe5d15aa	-0.21590295
155	0xbc520f6d	-0.012821061
156	0xbe843d39	-0.2582796
157	0xbe49c54f	-0.19704174
158	0xbdf0ff8e	-0.11767493
159	0xbedc49db	-0.43025097
160	0x3da6af4c	0.08138904
161	0x3dacd2c1	0.084386356
162	0xbeab123b	-0.33412346
163	0x3e13dfd5	0.14440854
164	0xbeec3d46	-0.46140498
165	0xbecb3abb	-0.39693245
166	0x3e11a507	0.14223109
167	0x3d4832ec	0.048876688
168	0xbe1be598	-0.15224302
169	0x3db982ae	0.09058128
170	0xbe17ad06	-0.14812097
171	0x3ea8a072	0.3293491
172	0xbdd35119	-0.103182025
173	0xbe512999	-0.20426024
174	0xbe03a2d2	-0.1285508
175	0x3e92c9ac	0.28669488
176	0xbe3e4fe4	-0.18585163
177	0x3e895acf	0.26827094
178	0xbce1786b	-0.02752324
179	0xbe15d076	-0.14630303
180	0xbe9e9f06	-0.309807
181	0x3e07b656	0.1325315
182	0x3e461278	0.19342983
183	0x3e4a516e	0.19757625
184	0xbda7fc0e	-0.082023725
185	0xbea54f4b	-0.32287058
186	0xbe4c8671	-0.1997316
187	0xbedffbd5	-0.4374682
188	0xbe7252d7	-0.23664413
189	0xbe449720	-0.19198275
190	0x3e25c83c	0.16189665
191	0x3e0a4c8d	0.13505764
192	0x3d0ea1d2	0.034822293
193	0x3e1b11aa	0.15143457
194	0xbeaf2dac	-0.34214532
195	0xbc41edd1	-0.011836485
196	0xbe02dc8e	-0.12779447
197	0xbe5181c8	-0.20459664
198	0x3ea2d344	0.31801808
199	0x3eb3bd49	0.3510535
200	0x3e931448	0.2872641
201	0xbbcd3359	-0.0062622246
202	0x3e53a4ed	0.20668383
203	0xbd638c5d	-0.055553783
204	0x3ee595d6	0.44840878
205	0xbd7b0553	-0.061284374
206	0xbe3ee907	-0.1864358
207	0x3df671a2	0.120333925
208	0x3e115d73	0.14195804
209	0x3d414372	0.04718346
210	0xbef7332f	-0.48281237
211	0x3e5e81c6	0.21729192
212	0x3e138a8d	0.14408322
213	0x3e8bb92c	0.27289712
214	0x3e9a9866	0.30194396
215	0x3dba2e3f	0.09090852
216	0x3ec6d021	0.38830665
217	0xbeaad661	-0.33366683
218	0x3d218562	0.039433844
219	0xbe1acbe9	-0.15116848
220	0x3dcd4a79	0.1002397
221	0x3e78489c	0.24246448
222	0xbe4428b7	-0.19156156
223	0x3e546215	0.2074054
224	0x3eb60d87	0.35557196
225	0xbb5b85a6	-0.0033496409
226	0xbe0958fd	-0.13412853
227	0x3e959998	0.29218745
228	0x3d1b3320	0.037890553
229	0xbdd55dd2	-0.104182854
230	0x3edfbe16	0.43699712
231	0x3d649318	0.055804342
232	0x3e80df87	0.25170538
233	0x3ef83574	0.48478281
234	0x3e7c6598	0.2464813
235	0xbcc336af	-0.023829786
236	0x3e82be3d	0.25535765
237	0x3d9082a4	0.07056168
238	0xbdb2f019	-0.08737201
239	0xbe2e9edb	-0.17052786
240	0x3d21c46e	0.03949397
241	0x3d5e3e6c	0.05425875
242	0xbe2d20dd	-0.16907068
243	0xbde7b570	-0.11313903
244	0xbdb1b4a0	-0.086770296
245	0x3d912ec1	0.07088996
246	0x3ef2e881	0.4744301
247	0x3e4ab778	0.1979655
248	0x3d0b824f	0.03405982
249	0xbdbe5361	-0.09293247
250	0x3d2db855	0.04241212
251	0xbe9727dd	-0.295226
252	0xbe6727a8	-0.22573721
253	0x3dc9d4d9	0.098550506
254	0x3eab4904	0.33454144
255	0x3ce3d63d	0.027812118

feature_extractor.dense_blocks.0.0.dense_layers.0.point_conv.conv_feats.0.bias f4 [32]
0	0x3e147802	0.14498904
1	0xbe2b2014	-0.16711456
2	0xbcea89eb	-0.028630218
3	0xbe41249e	-0.18861625
4	0x3d2c1c34	0.042019084
5	0x3d9f9707	0.07792478
6	0xbdbb3ddf	-0.0914266
7	0xbe379cc2	-0.17930892
8	0xbe26e324	-0.16297585
9	0xbdee1fa7	-0.11627131
10	0xbe151c9e	-0.14561698
11	0x3dd2a72a	0.1028579
12	0xbe203984	-0.1564694
13	0xbde158f4	-0.110032946
14	0x3d07eec9	0.033186708
15	0x3dcb21d8	0.099185646
16	0xbe19fa07	-0.15036784
17	0x3dd070c6	0.1017776
18	0xbdb26004	-0.0870972
19	0xbde37298	-0.111058414
20	0x3b50b6b3	0.0031847178
21	0xbda19d2c	-0.07891306
22	0xbd8ec92f	-0.069719665
23	0x3cbde0a6	0.02317841
24	0x3da8c725	0.08241109
25	0xbe17be4a	-0.14818683
26	0xbe084895	-0.13308938
27	0x3e118c30	0.14213634
28	0xbdb700cc	-0.08935699
29	0xbcfa1650	-0.030528218
30	0xbc9417ea	-0.01807781
31	0xbb9c8d93	-0.004777619

feature_extractor.dense_blocks.0.0.dense_layers.0.point_conv.conv_feats.1.weight f4 [32]
0	0x3f4924f2	0.78572
1	0x3f8d6b3c	1.104835
2	0x3f5e8d74	0.8693459
3	0x3f0abef6	0.54197633
4	0x3f4947d5	0.7862523
5	0x3f7169ea	0.9430224
6	0x3f76f8a3	0.9647314
7	0x3f5693ef	0.8381948
8	0x3f63fe09	0.890595
9	0x3f6009fc	0.87515235
10	0x3f78cc05	0.9718631
11	0x3f7ac386	0.97954595
12	0x3f267d33	0.6503479
13	0x3f7b05e8	0.9805589
14	0x3f6f5a27	0.93496937
15	0x3f7aad09	0.9792028
16	0x3f508330	0.81450176
17	0x3f42c41b	0.76080483
18	0x3f6646d4	0.89951825
19	0x3f6d4cf0	0.9269552
20	0x3f5f8af7	0.8732142
21	0x3f7bef55	0.98412067
22	0x3f71ca53	0.9444935
23	0x3f51ecd4	0.82001996
24	0x3f6401e3	0.8906538
25	0x3f74551a	0.95442355
26	0x3f4c39ac	0.797755
27	0x3f7d1ce9	0.9887224
28	0x3f80c97e	1.006149
29	0x3f26f435	0.6521638
30	0x3f73d1a0	0.9524174
31	0x3f8f5ca7	1.120015

feature_extractor.dense_blocks.0.0.dense_layers.0.point_conv.conv_feats.1.bias f4 [32]
0	0x3f444867	0.7667298
1	0x3e44ef6b	0.19231956
2	0x3f041122	0.5158864
3	0x3f600cd7	0.8751959
4	0x3ef09bbf	0.46993825
5	0x3f036a47	0.5133404
6	0x3e48a05a	0.1959242
7	0xbe7c5bcd	-0.24644394
8	0x3e46a4a6	0.19398746
9	0x3e6a7dd6	0.22899565
10	0x3ea9504a	0.33069068
11	0x3ee4fb46	0.44722956
12	0x3f308dda	0.6896645
13	0x3f2ea140	0.682148
14	0x3eda5a19	0.42646864
15	0x3e81d623	0.25358686
16	0x3f0d704c	0.55249476
17	0x3f216067	0.63037723
18	0x3f3097be	0.6898154
19	0x3ec3435b	0.38137326
20	0x3f5acf42	0.854725
21	0xbf4be78a	-0.79650176
22	0xbfa8210b	-1.3135084
23	0x3f1281f4	0.5722954
24	0x3f46b154	0.7761433
25	0x3f3279aa	0.69716895
26	0x3f012f2a	0.5046259
27	0xbd483dd0	-0.048887074
28	0xbe2e0c16	-0.16996798
29	0x3eb28ca2	0.3487292
30	0xbe49969c	-0.19686359
31	0x3efacb0c	0.48983037

feature_extractor.dense_blocks.0.0.dense_layers.0.point_conv.conv_feats.1.running_mean f4 [32]
0	0xbea4a38b	-0.32156023
1	0x3d896600	0.06708908
2	0xbe179057	-0.14801155
3	0xbf40d8d9	-0.75330883
4	0xbfe60d12	-1.7972739
5	0xbed3f3c4	-0.41396916
6	0x3d77afe9	0.060470495
7	0x3d5acf41	0.05342031
8	0xbf776263	-0.966345
9	0x3e8e4ade	0.27791494
10	0xbd06d7e3	-0.03292073
11	0x3d1b3240	0.03788972
12	0xbf8efb2a	-1.1170399
13	0x3ed81c71	0.422092
14	0xbf2cb7e1	-0.67468077
15	0xbd8173cc	-0.063209146
16	0xbf7aff80	-0.9804611
17	0xbf89702f	-1.0737361
18	0xbdc52ff4	-0.09628287
19	0xbe30f344	-0.17280298
20	0x3f1407c2	0.5782434
21	0x3f261447	0.6487469
22	0x3f1652db	0.5872018
23	0x3f1ab677	0.6043467
24	0xbf0dd919	-0.5540939
25	0xbe0596d9	-0.13045825
26	0xbf7d87ab	-0.9903514
27	0x3f44be2e	0.7685269
28	0x3e0d2567	0.13783799
29	0x3f30b0d7	0.69019836
30	0x3f99d4bc	1.2018046
31	0x3eebed73	0.46079597

feature_extractor.dense_blocks.0.0.dense_layers.0.point_conv.conv_feats.1.running_var f4 [32]
0	0x4012bb7d	2.2926934
1	0x4008b3ea	2.135981
2	0x3fc651a5	1.5493666
3	0x3fb0811c	1.3789401
4	0x4001ad94	2.0262194
5	0x3fcd0846	1.601815
6	0x3fcade64	1.5849118
7	0x3fa6d879	1.3034812
8	0x3fcf8cdf	1.6214865
9	0x3fc41c4e	1.5321138
10	0x3fee68d9	1.8625747
11	0x4009c241	2.1524813
12	0x3fac22c2	1.3448107
13	0x3fe603c1	1.7969896
14	0x40562d68	3.3465214
15	0x400ba1af	2.1817434
16	0x3ff02741	1.8761979
17	0x3fee3376	1.8609455
18	0x3febef17	1.843234
19	0x3fc5213f	1.5400771
20	0x40167050	2.350605
21	0x3ec2f36b	0.38076338
22	0x3e7119a8	0.23544943
23	0x3fe3d77a	1.7800133
24	0x4027fe01	2.6248782
25	0x3fd89aba	1.6922219
26	0x4015b4fc	2.3391714
27	0x3fcb2dea	1.5873387
28	0x3fb8ba17	1.443179
29	0x3f2c88c5	0.67396194
30	0x3f3f840b	0.74810857
31	0x40030a99	2.0475218

feature_extractor.dense_blocks.0.0.dense_layers.0.point_conv.post_conv.0.weight f4 [32, 32, 1, 1]
0	0xbf105f2d	-0.56395227
1	0xbebd4797	-0.3696868
2	0xbf02f267	-0.51151127
3	0x3dc68592	0.09693445
4	0x3e94d73c	0.2907046
5	0xbe578726	-0.21047649
6	0x3e59881d	0.2124333
7	0x3e34feb8	0.17675292
8	0xbf13162a	-0.57455695
9	0x3e2a4af2	0.16630152
10	0xbd0cf6ca	-0.034415044
11	0xbe5f08b4	-0.21780664
12	0xbf059c60	-0.52191734
13	0xbeb1ce56	-0.34727734
14	0x3daa67a7	0.08320551
15	0x3ccfba3f	0.025357364
16	0xbe4febe2	-0.20304826
17	0x3dc4f398	0.09616774
18	0xbf08defd	-0.53465253
19	0x3e27b131	0.16376187
20	0xbda985ac	-0.08277449
21	0x3dbe14bd	0.09281299
22	0x3cee09af	0.029057352
23	0xbeedd949	-0.46454838
24	0x3dfc4003	0.12316897
25	0xbee668f0	-0.45001936
26	0xbe458c27	-0.19291745
27	0x3d1137ae	0.03545349
28	0x3d9873ba	0.07443948
29	0x3de85d68	0.11345941
30	0xbf01db5d	-0.50725347
31	0xbcf0fb3d	-0.029416675
32	0xbe1c49ff	-0.15262602
33	0xbe124feb	-0.14288299
34	0x3cae359b	0.021265795
35	0xbf45b499	-0.77228695
36	0x3e16514b	0.14679448
37	0xbda537d1	-0.08067287
38	0x3e8614fe	0.2618789
39	0xbe686f38	-0.22698677
40	0x3e79ab15	0.24381669
41	0x3db1a028	0.086731255
42	0xbf2320e8	-0.63722086
43	0x3e2f7139	0.17133035
44	0x3e266ebb	0.16253178
45	0x3e002283	0.12513165
46	0x3b33c93b	0.0027433175
47	0x3e40f84d	0.18844719
48	0x3d302b9d	0.043010343
49	0x3f084b9e	0.5324038
50	0xbdea51db	-0.11441394
51	0x3d4eadc2	0.050458677
52	0x3c869b39	0.016431438
53	0xbd2120ac	-0.0393378
54	0xbe2544bb	-0.161395
55	0x3d629503	0.05531789
56	0xbeb798e6	-0.3585884
57	0xbe0df74b	-0.13863866
58	0x3e13e863	0.14444117
59	0xbdc42770	-0.095778346
60	0xbe09f4a0	-0.13472223
61	0xbe5b1c4e	-0.21397516
62	0x3e1eda0a	0.15512863
63	0xbf015bef	-0.50530905
64	0x3dcb4ee9	0.0992716
65	0xbe4d95f5	-0.20076735
66	0xbdf9b135	-0.12192003
67	0xbe2d09df	-0.16898297
68	0xbd02bdae	-0.031919174
69	0xbda1f949	-0.079088755
70	0x3e92bd07	0.2865984
71	0x3d833b97	0.0640785
72	0x3d5d9c3a	0.054104067
73	0xbe2a43f8	-0.1662749
74	0x3e378dad	0.17925139
75	0xbe60dd1a	-0.21959344
76	0xbe61b38e	-0.22041151
77	0x3e77b735	0.24190982
78	0xbf12be69	-0.5732179
79	0xbd01e96d	-0.031716753
80	0x3e559074	0.20855886
81	0xbf14e2b9	-0.5815845
82	0x3e076839	0.13223352
83	0xbf0b2f7a	-0.5436932
84	0xbf0ecf46	-0.55785024
85	0x3e2cacff	0.16862868
86	0xbe141a9d	-0.14463277
87	0xbf38d333	-0.72197264
88	0xbd3c0961	-0.045907382
89	0x3e2ab0cd	0.16669007
90	0xbeea61de	-0.45777792
91	0x3e20a153	0.1568654
92	0xbdd8bf24	-0.10583332
93	0xbda62eb9	-0.081143804
94	0xbecec74c	-0.40386426
95	0xbed8c246	-0.4233572
96	0xbd9fda6b	-0.07805332
97	0xbeb6a3af	-0.35671756
98	0x3c094050	0.00837715
99	0x3e1fdf99	0.1561264
100	0x3d05538e	0.032550387
101	0x3dc4eec8	0.096158564
102	0x3dec92bc	0.11551425
103	0xbe1a7469	-0.1508347
104	0x3db718f3	0.089403056
105	0xbe9f8215	-0.31153932
106	0xbe8eab6f	-0.27865168
107	0x3e8a4a8c	0.2701
108	0xbf4cf3b1	-0.80059344
109	0xbf292fe2	-0.6608869
110	0x3d3d9727	0.04628673
111	0x3d39e525	0.045384545
112	0xbc5cdc1d	-0.0134802135
113	0xbd0e6a61	-0.03476942
114	0x3e3968eb	0.1810643
115	0x3daf4053	0.08557191
116	0xbeb9bce6	-0.3627693
117	0xbe5e5813	-0.21713285
118	0x3e00f5f9	0.12593831
119	0xbc579349	-0.013157674
120	0x3e820860	0.25397015
121	0xbed5c44a	-0.4175132
122	0xbdcf88cc	-0.10133514
123	0x3e0154ec	0.12630051
124	0xbb88b619	-0.0041720984
125	0x3e8bf983	0.273388
126	0xbf1b2312	-0.6060039
127	0xbe27cf0d	-0.16387577
128	0xbdefe47f	-0.11713504
129	0xbef2978b	-0.47381243
130	0xbd7c6e8e	-0.06162887
131	0x3ce55435	0.027994255
132	0xbcd03d51	-0.025419863
133	0xbe43d879	-0.19125547
134	0x3e7768ef	0.24161123
135	0xbe7b79a6	-0.24558124
136	0xbe5ac362	-0.21363595
137	0xbd0ff618	-0.035146803
138	0xbd3ee7d4	-0.046607807
139	0xbe1d40fc	-0.15356821
140	0x3da6f440	0.08152056
141	0xbcd3330c	-0.025781177
142	0x3e551778	0.20809734
143	0x3d00e8bd	0.031471957
144	0xbd5c5e68	-0.05380097
145	0x3deb73ff	0.11496734
146	0xbeaaf4e7	-0.3338997
147	0x3b761502	0.0037549143
148	0x3e126f5b	0.14300291
149	0x3e829770	0.25506163
150	0x3ecaec19	0.39633253
151	0xbde357a7	-0.11100703
152	0xbf0ae163	-0.5425016
153	0xbeba27eb	-0.3635858
154	0xbd0b954a	-0.03407792
155	0x3e82d865	0.2555572
156	0x3e0bc583	0.13649563
157	0xbe05557a	-0.13020888
158	0x3cea14d5	0.028574387
159	0xbe376380	-0.1790905
160	0xbe8eef85	-0.27917114
161	0xbec46999	-0.38361815
162	0xbca380e5	-0.019958923
163	0xbebfc63f	-0.37455937
164	0x3c49c26b	0.012314419
165	0xbee7e3ce	-0.4529099
166	0x3e89d4f1	0.26920274
167	0xbe74639c	-0.23866123
168	0xbcc04076	-0.023468237
169	0xbdd7f48f	-0.10544693
170	0xbea160f2	-0.31519276
171	0xbdae8a97	-0.08522528
172	0xbed6721f	-0.41883942
173	0xbe76b515	-0.24092515
174	0x3e88b710	0.26702166
175	0xbe1ecabf	-0.15507029
176	0x3def827c	0.1169481
177	0x3d5a9dd2	0.053373165
178	0xbe2f8817	-0.17141758
179	0xbe4c38ba	-0.19943514
180	0xbe768d24	-0.24077278
181	0x3e16d028	0.14727843
182	0x3da1e586	0.07905106
183	0x3de377c4	0.11106828
184	0xbf039fb0	-0.5141554
185	0xbea8b1f4	-0.32948267
186	0x3d21ced0	0.039503872
187	0x3d7f1f0c	0.062285468
188	0xbde80a9a	-0.11330147
189	0xbea2d820	-0.31805515
190	0xbe6786ff	-0.2261009
191	0xbe440a1f	-0.19144486
192	0xbe50dd41	-0.20396902
193	0xbe297016	-0.16546664
194	0xbdcb089c	-0.099137515
195	0xbe35de29	-0.17760529
196	0x3c4d75bd	0.012540278
197	0xbdf14778	-0.1178121
198	0x3ec3389c	0.38129127
199	0xbdbb9234	-0.091587454
200	0xbe276adb	-0.16349356
201	0x3c50f573	0.012753832
202	0x3d28188c	0.041039035
203	0x3d5ad06c	0.053421423
204	0x3e2648d3	0.16238718
205	0xbee0f72a	-0.4393857
206	0xbc62e825	-0.013849293
207	0x3e430035	0.19043048
208	0xbe37e7e5	-0.17959554
209	0x3d865366	0.06558876
210	0xbdca978e	-0.09892188
211	0xbd525636	-0.05135175
212	0xbc0a383d	-0.00843626
213	0x3ea6ec71	0.32602265
214	0x3f0f0904	0.5587313
215	0xbead03fb	-0.337921
216	0xbea4ecb5	-0.32211843
217	0x3d43c69d	0.047796834
218	0x3ea2d6e6	0.3180458
219	0x3e66bdd0	0.22533345
220	0x3ea37bfa	0.31930524
221	0x3ca031e7	0.019555045
222	0xbde97834	-0.1139988
223	0xbd2755ab	-0.040853184
224	0x3e4b14f8	0.19832218
225	0xbec34f01	-0.38146213
226	0xbea4b926	-0.32172507
227	0xbc5b0000	-0.013366699
228	0xbcf8c533	-0.03036747
229	0x3d577972	0.052606054
230	0x3e54b6fd	0.2077293
231	0xbd918127	-0.07104712
232	0xbecac22b	-0.39601263
233	0xbda7532e	-0.08170162
234	0xbdffc849	-0.12489373
235	0xbdc68202	-0.09692766
236	0x3d6a255b	0.05716453
237	0xbe60fb15	-0.2197078
238	0xbd96f81e	-0.07371543
239	0x3d97a365	0.07404212
240	0xbddd6acf	-0.10811388
241	0xbc25ce2b	-0.010119955
242	0xbd4104d7	-0.047123756
243	0xbe9dfb10	-0.30855608
244	0xbe851dee	-0.25999397
245	0xbde21529	-0.11039192
246	0x3ea77ef9	0.3271406
247	0xbe15baca	-0.14622036
248	0xbe9fefce	-0.31237644
249	0x3e3f52ea	0.18683973
250	0xbe62a411	-0.22132899
251	0x3e49faba	0.19724551
252	0xbea23a90	-0.31685305
253	0x3d906474	0.0705041
254	0xbe60486c	-0.21902627
255	0xbd74d327	-0.059771683

feature_extractor.dense_blocks.0.0.dense_layers.0.point_conv.post_conv.0.bias f4 [32]
0	0xbe30e5b3	-0.17275123
1	0x3c54657f	0.012963652
2	0x3e1d2b1a	0.15348473
3	0x3d1167b4	0.03549929
4	0xbd912275	-0.0708665
5	0x3d890480	0.066903114
6	0x3d5e84aa	0.054325737
7	0x3da85885	0.08220009
8	0x3d91602a	0.0709842
9	0xbca1bf5e	-0.019744571
10	0xbe68e05c	-0.22741836
11	0xbd42056f	-0.047368463
12	0xbd4735a8	-0.048635155
13	0x3b4af512	0.0030968827
14	0xbe3c3b8e	-0.18382093
15	0xbdc11b4c	-0.094290346
16	0x3e0f962e	0.14022133
17	0x3df297f8	0.11845392
18	0x3dba6403	0.09101107
19	0xbcf3e30e	-0.029771354
20	0x3dc9d718	0.09855479
21	0xbe67e01b	-0.22644083
22	0xbcd4cbda	-0.02597611
23	0xbd9a1a5e	-0.075245604
24	0xbde12f08	-0.109952986
25	0x3c4223a7	0.0118493205
26	0xb9adadb7	-0.0003312656
27	0xbc49b36d	-0.012310845
28	0xbddcac0f	-0.10775005
29	0xbdc89009	-0.097930975
30	0x3dcba2e9	0.09943182
31	0xbdd3bdab	-0.10338911

feature_extractor.dense_blocks.0.0.dense_layers.0.point_conv.post_conv.1.weight f4 [32]
0	0x3f1ab283	0.6042864
1	0x3f165f60	0.5873928
2	0x3f0900b1	0.5351668
3	0x3f1c0e16	0.60958993
4	0x3f3f9ff0	0.7485342
5	0x3f18b281	0.59647375
6	0x3f11ca90	0.5694971
7	0x3ef75193	0.48304424
8	0x3f4718d2	0.7777225
9	0x3f46c3f6	0.7764276
10	0x3f1c440e	0.61041343
11	0x3f2bf26f	0.671668
12	0x3f0f8679	0.56064564
13	0x3f0c5af8	0.5482631
14	0x3f430062	0.7617246
15	0x3f113b6c	0.56731296
16	0x3f3e9e9e	0.7446078
17	0x3f578d0d	0.841996
18	0x3f139bb1	0.5765944
19	0x3f12f3b5	0.5740312
20	0x3ee12814	0.4397589
21	0x3f093394	0.53594327
22	0x3f53587d	0.825569
23	0x3f291dd8	0.6606116
24	0x3f41dfd9	0.7573219
25	0x3f215a0b	0.6302802
26	0x3f16090a	0.5860754
27	0x3f19239d	0.59819967
28	0x3f1a3c40	0.60248184
29	0x3f1767fe	0.59143054
30	0x3f4a98a2	0.7913915
31	0x3f3e9627	0.74447864

feature_extractor.dense_blocks.0.0.dense_layers.0.point_conv.post_conv.1.bias f4 [32]
0	0xbe28d1e6	-0.1648632
1	0xbe147453	-0.14497499
2	0xbe18ca30	-0.14920878
3	0xbddf85cf	-0.10914194
4	0xbf34b791	-0.705926
5	0xbe0ac8eb	-0.13553207
6	0xbfa35479	-1.2760154
7	0xbf25c427	-0.6475243
8	0xbe6595ec	-0.22420472
9	0xbcf191b7	-0.029488428
10	0xbe6fe1c1	-0.23425962
11	0xbdd8b1fd	-0.105808236
12	0xbe448ffb	-0.19195549
13	0xbe93efc6	-0.2889387
14	0xbebcc119	-0.36866072
15	0xbe96225f	-0.29323098
16	0xbe8bba2f	-0.27290484
17	0xbc292bef	-0.010325416
18	0xbe9d4936	-0.30719918
19	0xbeaeaeeb	-0.34117827
20	0xbf01980b	-0.50622624
21	0xbe8173ea	-0.25283748
22	0xbed14db4	-0.40879595
23	0xbec1ff86	-0.3789026
24	0xbea7cb89	-0.32772473
25	0xbe0fad87	-0.14031039
26	0xbd34ada7	-0.04411092
27	0xbd58fa49	-0.052973066
28	0xbf07046e	-0.52741134
29	0xbf9616cc	-1.1725707
30	0x3e9c833a	0.30568868
31	0xbeb0b294	-0.34511244

feature_extractor.dense_blocks.0.0.dense_layers.0.point_conv.post_conv.1.running_mean f4 [32]
0	0xbfc16cc3	-1.5111316
1	0xbf230bed	-0.6369007
2	0xbf4d90da	-0.8029915
3	0xbf4cdcab	-0.8002421
4	0xbf57ec0a	-0.8434454
5	0xbfb16b9a	-1.3860962
6	0xbeb8fe7f	-0.36131665
7	0xbf15d5c0	-0.5852928
8	0xbf987bbe	-1.1912763
9	0xbfe5229a	-1.7901185
10	0xbfa1d0ae	-1.2641809
11	0xbf4f88c8	-0.81068087
12	0xbfd73cdb	-1.6815447
13	0xbf9a0b3d	-1.203468
14	0xbfeb6cf7	-1.8392628
15	0xbdb0aa59	-0.08626241
16	0xbf9c63b6	-1.2217929
17	0x3eb038de	0.34418386
18	0xbf424e90	-0.75901127
19	0xbe9813e3	-0.29702672
20	0x3e239115	0.15973313
21	0x3dc25e79	0.094906755
22	0xbfdce1db	-1.7256426
23	0xbfb1409c	-1.3847842
24	0xbfc2305d	-1.5171009
25	0xbeba4a4b	-0.36384806
26	0xbf424847	-0.75891536
27	0xbfa1fae4	-1.2654691
28	0xbf73f439	-0.9529453
29	0xbf149126	-0.5803398
30	0x3e268db8	0.16264999
31	0xbf7e2d09	-0.9928747

feature_extractor.dense_blocks.0.0.dense_layers.0.point_conv.post_conv.1.running_var f4 [32]
0	0x401e4020	2.4726639
1	0x40028851	2.03957
2	0x400704c2	2.1096654
3	0x402c451e	2.6917186
4	0x3f4e7c7a	0.80658686
5	0x3fcae98f	1.5852526
6	0x3f1da948	0.6158643
7	0x3f921ca1	1.1414987
8	0x402e7be9	2.7263129
9	0x401af26a	2.4210458
10	0x3fe82a6d	1.8137947
11	0x3fd15949	1.6355373
12	0x40087048	2.131853
13	0x3fa6103f	1.2973708
14	0x400ea988	2.2290974
15	0x3fc1b0ea	1.5132115
16	0x404f1362	3.235558
17	0x3f8ac529	1.0841419
18	0x3ff34a3f	1.9007033
19	0x3f605e3a	0.8764378
20	0x3f953c98	1.1659117
21	0x3faba075	1.3408343
22	0x4031ec48	2.7800465
23	0x4001bdfe	2.0272212
24	0x3fea956f	1.8326854
25	0x3f9f0cec	1.2425818
26	0x3ff27cba	1.8944314
27	0x40265226	2.598764
28	0x3fae41f4	1.3613877
29	0x3eddea24	0.43342698
30	0x3f93643e	1.1514966
31	0x3fb248cb	1.3928465
