local_distance_indicator/pretrained_local/pugan_local/ckpt/ckpt-epoch-60.pth (torch, 453007 bytes, 299 tensors)

feature_extractor.conv_init.0.weight f4 [32, 3, 1]
-0.03577344 0.23073363 -0.47520992 -0.6106619 0.09675083 -0.21421595 0.1281717 0.07854336
0.26826394 0.2020117 0.60495704 -0.3561331 -0.024227139 0.050346777 0.70459986 -0.3701095
0.34959194 -0.6592253 -0.2684086 0.057458848 0.38186035 -0.11708828 -0.5505446 -0.2697885
-0.395433 -0.009542871 0.17365436 -0.3052852 0.4851139 0.7387098 -0.3686899 0.105180316
-0.32528412 -0.33842775 -0.13362363 -0.5440544 -0.124883994 0.5407149 -0.026031679 0.13445984
0.018759694 0.5204733 0.27998087 -0.3139303 -0.18524906 -0.43301085 -0.02880454 0.556247
0.32067043 0.4628131 0.35920748 0.11858192 -0.31346077 -0.13812113 0.8161459 0.07575801
0.03368204 -0.43146357 0.21199585 0.0024937529 0.27529228 -0.24037261 0.38023075 0.22206295
-0.1513221 0.36396503 0.16474494 0.50432336 0.32188898 0.017505238 -0.47454435 0.5736306
-0.11617795 0.5138183 -0.103757426 -0.47451732 -0.12663046 -0.20192128 -0.6164358 -0.38866612
-0.48174042 -0.187263 -0.4651258 0.65111107 -0.055105258 -0.048166238 0.3287231 0.12699567
0.56003606 -0.43886095 -0.21772508 0.2599831 -0.29791743 -0.23913819 0.37566015 -0.07820942
00000000: 2c87 12bd 7045 6c3e b74e f3be 5754 1cbf
00000010: 4d25 c63d 6d5b 5bbe 713f 033e 57db a03d
00000020: e459 893e 28dc 4e3e 77de 1a3f 1457 b6be
00000030: fe77 c6bc 6c38 4e3d a860 343f fe7e bdbe
00000040: b7fd b23e fdc2 28bf da6c 89be f859 6b3d
00000050: 3383 c33e fbcb efbd 7ef0 0cbf b821 8abe
00000060: 3276 cabe b459 1cbc 73d2 313e 574e 9cbe
00000070: d960 f83e 161c 3d3f ecc4 bcbe c768 d73d
00000080: a48b a6be 6746 adbe a2d4 08be 2647 0bbf
00000090: 2ec3 ffbd 4b6c 0a3f 6340 d5bc d7af 093e
000000a0: eead 993c bd3d 053f a759 8f3e 79bb a0be
000000b0: eeb1 3dbe 99b3 ddbe 80f7 ebbc 3466 0e3f
000000c0: ea2e a43e d7f5 ec3e 0bea b73e 14db f23d
000000d0: ee7d a0be a06f 0dbe f0ee 503f 0427 9b3d
000000e0: 2ef6 093d cbe8 dcbe 7115 593e 3b6e 233b
000000f0: 1cf3 8c3e 3d24 76be 9bad c23e 7864 633e
00000100: 2ef4 1abe a059 ba3e e6b2 283e 561b 013f
00000110: a2ce a43e 2567 8f3c 7af7 f2be 74d9 123f
00000120: b4ee edbd 9989 033f c67e d4bd eff3 f2be
00000130: 6aab 01be 74c4 4ebe bdce 1dbf 3fff c6be
00000140: aea6 f6be dfc1 3fbe f824 eebe 37af 263f
00000150: 0db6 61bd f649 45bd 654e a83e 270b 023e
00000160: 865e 0f3f 62b2 e0be 53f3 5ebe 811c 853e
00000170: a288 98be a4e0 74be 8756 c03e 432c a0bd

feature_extractor.conv_init.0.bias f4 [32]
0.38681012 -0.55388176 -0.31256568 -0.13429818 0.41646594 -0.5069605 -0.2176202 -0.006431613
-0.20817465 0.49231112 0.5254712 0.5322016 0.2931365 0.106182225 0.28445205 0.35821575
-0.35066223 0.3549876 -0.4023034 0.24236257 0.44022244 0.062045343 0.4271172 0.4568886
0.54903847 0.29555786 -0.37820762 0.5049173 -0.07600864 0.3074825 -0.0014706925 0.28808954
00000000: fa0b c63e 32cb 0dbf 9c08 a0be 7685 09be
00000010: 063b d53e 2ac8 01bf d4d7 5ebe 48c0 d2bb
00000020: bc2b 55be 3410 fc3e 4885 063f 5d3e 083f
00000030: fd15 963e 1176 d93d b3a3 913e 0e68 b73e
00000040: 008a b3be efc0 b53e b6fa cdbe e52d 783e
00000050: d664 e13e 4223 7e3d 1baf da3e 4ded e93e
00000060: c98d 0c3f 5c53 973e 6ea4 c1be 4342 013f
00000070: 6baa 9bbd 596e 9d3e 40c4 c0ba 7980 933e

feature_extractor.conv_init.1.weight f4 [32]
0.7014694 0.66330653 0.65282315 0.87175435 1.0609899 0.84842557 1.0351206 0.90412503
0.57479465 0.6799572 0.6126313 0.9453351 0.67480737 0.7738018 0.81465554 0.8738217
0.63967574 0.7118079 0.929144 0.8302914 0.8890882 0.7404475 1.0350792 0.74264085
0.83598006 0.88807374 0.7592892 0.9200245 0.62128466 0.7707816 0.85209155 0.76675606
00000000: 8093 333f 75ce 293f 6b1f 273f 4b2b 5f3f
00000010: 84ce 873f 6b32 593f d57e 843f bd74 673f
00000020: be25 133f ad11 2e3f 68d5 1c3f 7b01 723f
00000030: 2dc0 2c3f e017 463f 448d 503f c7b2 5f3f
00000040: cac1 233f 0b39 363f 62dc 6d3f fa8d 543f
00000050: 499b 633f f88d 3d3f 7a7d 843f b61d 3e3f
00000060: ca02 563f cd58 633f c760 423f ba86 6b3f
00000070: 830c 1f3f f151 453f ac22 5a3f 204a 443f

feature_extractor.conv_init.1.bias f4 [32]
-0.26628155 -0.25454128 -0.40546462 0.36696765 0.0698034 0.6090383 0.09878273 0.51075965
0.07631959 -0.05120906 -0.25505838 0.12055334 -0.42655683 -0.2834389 0.55109924 -0.015749209
-0.3155569 -0.27658203 0.039514847 0.01623571 0.29042298 0.18857454 0.24060893 -0.3832678
0.11355617 -0.08790845 -0.19204085 -0.4035104 -0.29519263 0.06692906 -0.06785905 -0.084252425
00000000: 0e56 88be 3c53 82be 0f99 cfbe 2fe3 bb3e
00000010: 16f5 8e3d efe9 1b3f 9a4e ca3d 25c1 023f
00000020: 724d 9c3d 97c0 51bd 0397 82be abe4 f63d
00000030: a865 dabe e71e 91be d714 0d3f 7c04 81bc
00000040: ad90 a1be 299c 8dbe 52da 213d c000 853c
00000050: 52b2 943e af19 413e 3062 763e ad3b c4be
00000060: 2390 e83d 5809 b4bd 5ba6 44be ea98 cebe
00000070: 7d23 97be 1a12 893d b0f9 8abd 898c acbd

feature_extractor.conv_init.1.running_mean f4 [32]
0.38708368 -0.5532608 -0.31266165 -0.1339767 0.41640687 -0.5062887 -0.21741463 -0.0066832113
-0.20787556 0.4927959 0.5259116 0.53248096 0.2936341 0.105996616 0.2840205 0.35846993
-0.35066026 0.35468513 -0.4029446 0.24287897 0.43975484 0.06168936 0.4272867 0.45643932
0.5495221 0.2959013 -0.37788606 0.50463516 -0.076050475 0.30784866 -0.0010512947 0.2885739
00000000: d52f c63e 80a2 0dbf 3015 a0be 3031 09be
00000010: 4833 d53e 239c 01bf f1a1 5ebe d7fe dabb
00000020: 55dd 54be bf4f fc3e 25a2 063f ac50 083f
00000030: 3557 963e c114 d93d 236b 913e 5f89 b73e
00000040: be89 b3be 4a99 b53e c14e cebe 44b5 783e
00000050: 8c27 e13e fbad 7c3d 53c5 da3e 6ab2 e93e
00000060: 7bad 0c3f 6080 973e 487a c1be c52f 013f
00000070: 5ac0 9bbd 579e 9d3e 99cb 89ba f5bf 933e

feature_extractor.conv_init.1.running_var f4 [32]
0.031243023 0.048712987 0.011018876 0.058715243 0.057195596 0.07814246 0.02496942 0.045223095
0.020873826 0.101163976 0.02884703 0.04981771 0.034829717 0.033290412 0.024166064 0.055677462
0.05202391 0.015128023 0.076091856 0.026133507 0.031327575 0.023173217 0.044904124 0.06122069
0.032295264 0.032364946 0.08865676 0.07430519 0.012768522 0.057377476 0.022823783 0.022999147
00000000: 5ef1 ff3c 4587 473d 8488 343c 657f 703d
00000010: ee45 6a3d 2709 a03d ab8c cc3c da3b 393d
00000020: 96ff aa3c 0f2f cf3d 9b50 ec3c a80d 4c3d
00000030: 9ba9 0e3d 875b 083d e9f7 c53c 0d0e 643d
00000040: 0617 553d 87db 773c 0cd6 9b3d f015 d63c
00000050: 5851 003d c2d5 bd3c 63ed 373d 8cc2 7a3d
00000060: 0a48 043d 1b91 043d ad91 b53d 522d 983d
00000070: 1033 513c a504 6b3d f1f8 ba3c b568 bc3c

feature_extractor.dense_blocks.0.0.dense_layers.0.conv_bottle.0.weight f4 [32, 32, 1]
0.06864397 -0.095627606 0.17250954 -0.08156591 0.045835644 0.04256855 0.22704855 -0.018361736
-0.026821384 0.17776103 0.034079608 -0.04752368 -0.21433574 0.11306641 0.10515302 0.26467124
0.042571187 -0.021013634 0.026469395 0.0005145901 0.107377335 0.0066166925 0.04993353 0.055200312
-0.10276589 -0.06675391 0.0479981 0.16267571 0.19684264 -0.14924414 0.09209992 -0.09498554
0.029794652 -0.07332649 -0.01811752 -0.029612856 0.10703491 0.022563191 0.162294 0.053821754
-0.07368448 0.008657968 0.11500521 0.116522774 -0.096938305 0.20187083 0.2017946 0.057994537
-0.0057347403 0.197344 -0.08786315 -0.07163004 0.00627785 0.13569167 0.094665244 0.2459824
0.036409136 -0.13577485 0.16569498 0.15714318 0.12431061 -0.080503166 0.14601916 -0.0449976
-0.0644543 0.13615507 0.22651958 0.14236102 -0.0042060874 0.13094993 -0.01333668 0.13561529
0.11885225 -0.026442258 -0.0009819029 -0.096647345 -0.05951903 0.01872179 -0.15768778 0.10412949
0.13817096 -0.15045737 -0.01817538 -0.058431063 0.10020729 0.16576223 0.006070028 -0.026220154
0.10659215 0.08847492 -0.07627741 0.1531377 0.2622534 0.26432392 0.21396963 0.11338773
-0.22223316 0.08331471 -0.049999002 -0.24280621 0.06862333 -0.0896273 0.009159775 0.055881333
0.046240296 -0.11031872 -0.14293997 -0.12264863 -0.08978357 -0.17017026 0.004641439 -0.040382
-0.051496286 -0.21864179 -0.2852333 -0.044694122 0.10661301 -0.098512456 -0.064601116 0.04620775
-0.1606923 0.075734 -0.040991426 0.1868551 0.08981475 -0.062396392 -0.20822437 0.05682784
-0.20349725 -0.07091087 -0.0834785 -0.19171514 -0.08875888 -0.054684486 0.03950549 -0.009268163
0.0649144 0.03435091 0.104271494 0.1223023 -0.022819825 -0.2516414 0.011014396 -0.05710641
-0.19302148 -0.05076514 -0.077858254 0.18247911 -0.092074715 -0.30381912 -0.19328837 -0.01932604
0.008096978 -0.15768462 -0.09857812 -0.2647201 -0.20607796 0.072776295 0.14816116 0.16219544
-0.027224682 0.032387633 -0.02895542 0.03758519 -0.25152448 0.13309993 -0.0751294 0.13029598
0.016209204 -0.10899641 0.015521414 0.1293498 0.08223143 -0.33146393 0.1299698 -0.07966492
-0.33587188 -0.0658398 -0.12247785 0.121032 -0.12898025 -0.06369931 -0.25876874 0.1501684
0.026763165 0.08880604 -0.08015688 -0.0034363386 -0.20483714 0.030273775 0.07558604 0.17657003
-0.027037023 -0.1751686 0.04483871 0.003962424 -0.051750157 -0.065795325 0.045387242 -0.08705279
-0.14777766 0.041270785 -0.08469434 0.0046349475 -0.021757627 0.2067178 -0.14369264 -0.01402281
-0.091187455 -0.005866258 -0.19873951 -0.1555715 -0.0045336415 0.2561492 0.10454753 0.22530626
-0.04123268 -0.07211193 -0.025013387 0.19105677 0.17315127 -0.020918204 -0.057764255 -0.253537
-0.09736625 0.061667413 0.024035506 -0.21012765 0.059547227 -0.1273659 0.15300491 0.21675152
0.12833568 -0.092357635 0.09883022 -0.05408679 -0.13668667 -0.12732482 0.16714653 -0.13780467
-0.20257698 0.055054866 -0.12930967 0.020762974 -0.1714808 -0.1155316 0.008745813 -0.083817534
0.025799673 0.063433886 0.15154561 0.05846663 0.047616534 -0.27253675 -0.19557852 -0.20790674
00000000: 3695 8c3d 68d8 c3bd 57a6 303e 070c a7bd
00000010: 28be 3b3d 5c5c 2e3d 6a7f 683e 5a6b 96bc
00000020: 85b8 dbbc fd06 363e 0f97 0b3d 31a8 42bd
00000030: d47a 5bbe 5d8f e73d 775a d73d fd82 873e
00000040: 205f 2e3d c924 acbc 58d6 d83c 8fe5 063a
00000050: a6e8 db3d d7d0 d83b 1a87 4c3d b919 623d
00000060: ec76 d2bd 46b6 88bd a899 443d 7694 263e
00000070: 1e91 493e 75d3 18be e29e bc3d c787 c2bd
00000080: ea13 f43c 332c 96bd 316b 94bc a996 f2bc
00000090: 1e35 db3d 71d6 b83c 6630 263e 3374 5c3d
000000a0: e3e7 96bd 26da 0d3c da87 eb3d 7ea3 ee3d
000000b0: 9787 c6bd 3ab7 4e3e 3ea3 4e3e ae8b 6d3d
000000c0: 7dea bbbb 8c14 4a3e 98f1 b3bd c5b2 92bd
000000d0: 6cb6 cd3b c2f2 0a3e dadf c13d cfe2 7b3e
000000e0: bf21 153d 9008 0bbe f2ab 293e 24ea 203e
000000f0: 9096 fe3d d8de a4bd 0c86 153e 674f 38bd
00000100: 9e00 84bd 3c6c 0b3e c0f4 673e 16c7 113e
00000110: 38d3 89bb bd17 063e 1782 5abc bcde 0a3e
00000120: cf68 f33d 6f9d d8bc 32b3 80ba 0bef c5bd
00000130: 3aca 73bd 705e 993c e878 21be d841 d53d
00000140: b07c 0d3e 7f11 1abe 89e4 94bc 6955 6fbd
00000150: 7b39 cd3d 93bd 293e 16e7 c63b a6cb d6bc
00000160: fc4c da3d 5732 b53d 5537 9cbd 21d0 1c3e
00000170: 1446 863e 7755 873e db1a 5b3e d437 e83d
00000180: 1791 63be e7a0 aa3d c1cb 4cbd 31a2 78be
00000190: 638a 8c3d 858e b7bd e212 163c d3e3 643d
000001a0: 7766 3d3d c8ee e1bd db5e 12be 342f fbbd
000001b0: 73e0 b7bd 1d41 2ebe 3617 983b 9967 25bd
000001c0: c5ed 52bd a2e3 5fbe 190a 92be 2f11 37bd
000001d0: ec57 da3d e6c0 c9bd 974d 84bd 5644 3d3d
000001e0: 868c 24be 6d1a 9b3d a0e6 27bd f156 3f3e
000001f0: ccf0 b73d 5c93 7fbd c538 55be 4fc4 683d
00000200: 9561 50be b839 91bd c7f6 aabd f950 44be
00000210: 37c7 b5bd d7fc 5fbd 82d0 213d 7ed9 17bc
00000220: d7f1 843d 8ab3 0c3d 4b8c d53d a179 fa3d
00000230: a4f0 babc 24d7 80be ba75 343c 69e8 69bd
00000240: 6ca7 45be 1cef 4fbd 2674 9fbd cedb 3a3e
00000250: ab91 bcbd 2e8e 9bbe 63ed 45be a551 9ebc
00000260: 30a9 043c 1478 21be 53e3 c9bd 6589 87be
00000270: 1a06 53be bd0b 953d 8fb7 173e 9016 263e
00000280: 4c06 dfbc e5a8 043d eb33 edbc eef2 193d
00000290: d1c7 80be 594b 083e 71dd 99bd 4f6c 053e
000002a0: 2ac9 843c 8339 dfbd 874d 7e3c 4674 043e
000002b0: f468 a83d a4b5 a9be ce16 053e 5d27 a3bd
000002c0: 66f7 abbe 04d7 86bd abd5 fabd a0df f73d
000002d0: 6613 04be c974 82bd 567d 84be bfc5 193e
000002e0: 6d3e db3c f1df b53d 4a29 a4bd 3234 61bb
000002f0: d4c0 51be b500 f83c dbcc 9a3d c6ce 343e
00000300: bf7c ddbc 665f 33be cca8 373d 39d7 813b
00000310: f9f7 53bd b3bf 86bd f9e7 393d bc48 b2bd
00000320: 0753 17be 8e0b 293d 3a74 adbd c2e0 973b
00000330: 0d3d b2bc d5ad 533e 2a24 13be eebf 65bc
00000340: 7dc0 babd bd39 c0bb 5f82 4bbe 234e 1fbe
00000350: f18e 94bb fd25 833e 041d d63d afb6 663e
00000360: 99e3 28bd 6baf 93bd e0e8 ccbc 63a4 433e
00000370: 914e 313e a75c abbc 369a 6cbd 9acf 81be
00000380: f567 c7bd f896 7c3d 1ce6 c43c b42b 57be
00000390: cbe7 733d 356c 02be 52ad 1c3e 1cf4 5d3e
000003a0: 6e6a 033e 0026 bdbd 8067 ca3d 1c8a 5dbd
000003b0: 97f7 0bbe 7061 02be 7628 2b3e ab1c 0dbe
000003c0: 5770 4fbe 3681 613d c169 04be 1d17 aa3c
000003d0: aa98 2fbe d59b ecbd 994a 0f3c 87a8 abbd
000003e0: d659 d33c a0e9 813d c62e 1b3e b47a 6f3d
000003f0: 8e09 433d f089 8bbe bc45 48be 81e5 54be

feature_extractor.dense_blocks.0.0.dense_layers.0.conv_bottle.0.bias f4 [32]
-0.11066534 -0.10123595 0.12482185 -0.09655488 0.06382853 0.10500953 0.011755501 0.07572316
0.096210726 0.106204115 0.13700444 0.111254245 -0.08350853 -0.103152014 0.0095232995 0.12762283
0.11289843 0.08899403 0.019284831 -0.07205459 0.05675388 -0.112383224 0.014276519 -0.14678518
0.03264123 0.10036156 0.12175003 -0.13493921 0.14061439 -0.06091236 0.17821513 -0.025407368
00000000: 83a4 e2bd cb54 cfbd 99a2 ff3d 91be c5bd
00000010: 88b8 823d 3d0f d73d 259a 403c be14 9b3d
00000020: 210a c53d 8b81 d93d e44a 0c3e 44d9 e33d
00000030: 8506 abbd 5d41 d3bd 9d07 1c3c 8faf 023e
00000040: 4b37 e73d 8142 b63d 39fb 9d3c 5b91 93bd
00000050: c276 683d 2d29 e6bd 10e8 693c db4e 16be
00000060: cfb2 053d 5d8a cd3d 1458 f93d 812d 0abe
00000070: 38fd 0f3e 3d7f 79bd 077e 363e 1d23 d0bc

feature_extractor.dense_blocks.0.0.dense_layers.0.conv_bottle.1.weight f4 [32]
0.9196416 0.9576629 0.92248076 0.9199712 0.8478806 0.936393 1.1901873 0.82843745
1.1104894 1.2708803 1.0979799 1.2620721 1.0621818 0.91025734 1.0915803 0.8791352
0.9277545 0.87677515 0.95008737 0.92511976 0.8968131 0.97690904 0.9030571 0.8971177
0.97012764 1.0523587 1.0762087 0.99975777 0.9463689 0.8273667 0.94074917 0.8869039
00000000: a26d 6b3f 6529 753f b327 6c3f 3c83 6b3f
00000010: b40e 593f 74b7 6f3f 0f58 983f 7a14 543f
00000020: 8424 8e3f 35ac a23f 9b8a 8c3f 948b a13f
00000030: 93f5 873f a006 693f e7b8 8b3f 010f 613f
00000040: 5281 6d3f 5674 603f ed38 733f a6d4 6c3f
00000050: 8b95 653f b616 7a3f c02e 673f 81a9 653f
00000060: 495a 783f b1b3 863f 35c1 893f 20f0 7f3f
00000070: 3b45 723f 4ece 533f f0d4 703f 220c 633f

feature_extractor.dense_blocks.0.0.dense_layers.0.conv_bottle.1.bias f4 [32]
-0.020667395 -0.24620219 -0.06780388 -0.0693141 -0.034475096 0.12745126 0.0040236823 0.0053796563
-0.7094752 -0.33187798 0.2545336 -0.497921 0.10719026 0.013778644 0.038214743 -0.22068477
0.034319956 -0.070302725 0.017471427 -0.069005765 0.061948787 0.013058371 -0.11154388 -0.093379416
0.055082444 0.09761389 0.1366801 0.11991358 0.0051416224 -0.07031096 0.10481889 0.15767893
00000000: ab4e a9bc 6d1c 7cbe c3dc 8abd 8df4 8dbd
00000010: c235 0dbd 9582 023e 18d9 833b d447 b03b
00000020: 2ba0 35bf e9eb a9be 3a52 823e 80ef febe
00000030: 9186 db3d d2bf 613c 1087 1c3d 30fb 61be
00000040: 1593 0c3d e0fa 8fbd 3d20 8f3c e552 8dbd
00000050: 03be 7d3d c7f2 553c 1e71 e4bd b53d bfbd
00000060: 219e 613d cbe9 c73d def5 0b3e 4095 f53d
00000070: 0e7b a83b 31ff 8fbd 49ab d63d 9676 213e

feature_extractor.dense_blocks.0.0.dense_layers.0.conv_bottle.1.running_mean f4 [32]
0.2510995 0.46687952 0.7184709 -0.65215415 -0.45012134 -0.0004148574 -0.25825924 -0.20003876
0.5055512 0.24871805 -0.21587728 0.37279996 -0.5570721 -0.29194504 -0.008070008 -0.031180406
0.40468487 0.5086465 -0.22822207 -0.06908932 -0.4012699 -0.86921203 0.675959 -0.6804539
-0.16371757 0.16675393 -0.48976812 -0.8341232 -0.46552554 -0.06695833 -0.2472529 -0.20283845
00000000: 1d90 803e d50a ef3e b5ed 373f 93f3 26bf
00000010: 4e76 e6be 3881 d9b9 8e3a 84be f6d6 4cbe
00000020: ce6b 013f f2af 7e3e ef0e 5dbe a3df be3e
00000030: 479c 0ebf d279 95be 1138 04bc 0d6e ffbc
00000040: db32 cf3e a836 023f 0cb3 69be b47e 8dbd
00000050: 4073 cdbe ae84 5ebf a60b 2d3f 3a32 2ebf
00000060: 94a5 27be 8bc1 2a3e e3c2 fabe 1989 55bf
00000070: 5d59 eebe 7321 89bd dd2f 7dbe e2b4 4fbe

feature_extractor.dense_blocks.0.0.dense_layers.0.conv_bottle.1.running_var f4 [32]
0.34007365 0.16851038 0.18126567 0.3262093 0.32623142 0.76757216 0.29432732 0.3862416
0.19023462 0.09436106 0.5234468 0.17821494 0.13761133 0.34259653 0.43550768 0.1936249
0.51663303 0.1501902 0.1972553 0.42830452 0.6130585 0.25285712 0.17554863 0.3215164
0.30742505 0.41246265 0.24291661 0.30594507 0.23801497 0.2879608 0.6465557 0.36744517
00000000: 221e ae3e fc8d 2c3e b59d 393e e804 a73e
00000010: ce07 a73e 9c7f 443f 12b2 963e 76c1 c53e
00000020: ddcc 423e 5f40 c13d 9c00 063f fa7d 363e
00000030: fce9 0c3e d068 af3e ddfa de3e 9b45 463e
00000040: 1042 043f 76cb 193e 4bfd 493e bb4a db3e
00000050: 67f1 1c3f 7d76 813e 05c3 333e cc9d a43e
00000060: d166 9d3e 4e2e d33e 22bf 783e d5a4 9c3e
00000070: 32ba 733e 996f 933e ad84 253f c621 bc3e

feature_extractor.dense_blocks.0.0.dense_layers.0.point_conv.conv_delta.0.weight f4 [32, 3, 1, 1]
-0.07700774 0.5783966 0.39672974 0.030503057 -0.20809597 -0.20650326 -0.39430186 0.11997405
-0.48797798 0.5075175 -0.19718169 -0.40628338 0.44112754 -0.26311454 0.14784375 -0.07079946
-0.09387372 0.58930045 -0.5867982 0.27503687 0.20610125 0.5266102 -0.6148466 0.4824038
-0.11900336 0.04340673 -0.14756995 0.46482545 -0.3671955 0.4109129 0.40246153 -0.31699193
-0.45181757 -0.54043454 -0.46970904 0.28585792 -0.214156 -0.5158352 0.011400553 0.043347523
-0.44320744 -0.64094126 0.40490314 -0.15375032 -0.1201264 0.009336843 0.060501635 0.42941573
-0.3951937 0.4231078 -0.123732254 -0.03080798 -0.111885026 -0.52153015 -0.3898953 -0.53781855
0.1749421 0.26729512 -0.49459508 -0.15292358 0.010720019 -0.52003 0.067621976 0.07333872
0.080880195 -0.20312718 0.12512095 0.51010036 -0.20778888 -0.3568148 -0.52248794 -0.39984587
0.65777075 -0.061408535 -0.096131116 -0.56787455 0.1665987 -0.030850794 -0.46801585 0.009382061
-0.45848152 -0.03706089 0.27861208 0.42685914 0.055107232 0.35446602 -0.35113525 0.4630635
-0.08854796 0.47590476 -0.43830034 -0.1004491 -0.25913855 0.18615976 -0.63997346 0.038837112
00000000: 3cb6 9dbd cd11 143f 2920 cb3e 8ce1 f93c
00000010: 1c17 55be 9775 53be efe1 c9be f4b4 f53d
00000020: 40d8 f9be abec 013f ffe9 49be 6004 d0be
00000030: 78db e13e f3b6 86be 5a64 173e 4fff 90bd
00000040: dd40 c0bd 65dc 163f 6838 16bf a2d1 8c3e
00000050: 350c 533e edcf 063f 9666 1dbf a2fd f63e
00000060: 09b8 f3bd 41cb 313d 941c 17be 9afd ed3e
00000070: 0c01 bcbe 2d63 d23e 700f ce3e c44c a2be
00000080: a254 e7be eb59 0abf b47d f0be f85b 923e
00000090: b64b 5bbe c70d 04bf 63c9 3a3c 2c8d 313d
000000a0: 16ec e2be ba14 24bf 774f cf3e b970 1dbe
000000b0: d404 f6bd 8ff9 183c 90d0 773d 61dc db3e
000000c0: d456 cabe 96a1 d83e 5667 fdbd 0461 fcbc
000000d0: fa23 e5bd 0083 05bf 5ba0 c7be 7aae 09bf
000000e0: 0624 333e e8da 883e 913b fdbe 0098 1cbe
000000f0: 05a3 2f3c b020 05bf 647d 8a3d 9c32 963d
00000100: 84a4 a53d 9200 50be b51f 003e f095 023f
00000110: 9cc6 54be 6eb0 b6be c5c1 05bf 99b8 ccbe
00000120: aa63 283f 8487 7bbd 64e0 c4bd 3a60 11bf
00000130: da98 2a3e ceba fcbc c69f efbe 37b7 193c
00000140: 17be eabe 29cd 17bd 3ea6 8e3e 488d da3e
00000150: 1fb8 613d 927c b53e 00c8 b3be a916 ed3e
00000160: a258 b5bd caa9 f33e e768 e0be 42b8 cdbd
00000170: cfad 84be aaa0 3e3e 4dd5 23bf aa13 1f3d

feature_extractor.dense_blocks.0.0.dense_layers.0.point_conv.conv_delta.0.bias f4 [32]
-0.18938304 0.30489606 0.08949161 0.48100564 -0.16311035 0.07227321 0.30601838 0.18897492
-0.023676584 0.5739141 0.36451933 -0.2890215 -0.22536823 -0.1002616 -0.5625345 0.23967981
-0.36031464 -0.25552166 -0.14373975 -0.060696628 -0.2634305 0.082769774 -0.5428333 0.19710916
-0.12406319 0.07603239 0.49757776 -0.28377873 -0.2595518 -0.026944475 -0.17541926 -0.35712385
00000000: a1ed 41be 561b 9c3e 6147 b73d 5f46 f63e
00000010: 6606 27be fa03 943d 71ae 9c3e a482 413e
00000020: 65f5 c1bc 09ec 123f 47a2 ba3e a0fa 93be
00000030: eec6 66be f455 cdbd 4302 10bf a06e 753e
00000040: 297b b8be bcd3 82be 8330 13be 079d 78bd
00000050: 5de0 86be 3383 a93d 20f7 0abf fcd6 493e
00000060: d714 febd dfb6 9b3d 83c2 fe3e 724b 91be
00000070: f9e3 84be a9ba dcbc 1ba1 33be f0d8 b6be

feature_extractor.dense_blocks.0.0.dense_layers.0.point_conv.conv_delta.1.weight f4 [32]
0.85363245 0.8815282 0.9824268 1.1799518 0.9685333 0.9717251 0.89530677 1.0198333
0.99097025 1.0172143 1.0039798 0.95252573 1.0769958 0.9543059 0.92918617 1.2510843
0.9894547 0.9167935 0.96410286 1.0008167 1.0258384 0.9571708 1.1184877 0.92885524
0.92699796 0.89989245 0.98085153 0.9647713 0.9575136 1.0288404 1.1109651 1.0737764
00000000: a887 5a3f d5ab 613f 5380 7b3f a908 973f
00000010: ccf1 773f fac2 783f d332 653f e689 823f
00000020: 3ab0 7d3f 1434 823f 6982 803f bad8 733f
00000030: 00db 893f 644d 743f 25df 6d3f 8823 a03f
00000040: e74c 7d3f fbb2 6a3f 72cf 763f c31a 803f
00000050: ac4e 833f 2509 753f 9b2a 8f3f 75c9 6d3f
00000060: bd4f 6d3f 5a5f 663f 1619 7b3f 40fb 763f
00000070: 9c1f 753f 0bb1 833f 1b34 8e3f 8171 893f

feature_extractor.dense_blocks.0.0.dense_layers.0.point_conv.conv_delta.1.bias f4 [32]
-0.054036487 -0.23643437 -0.03396102 0.14051534 0.0084711285 -0.017567853 -0.29265118 -0.08980913
-0.08665607 -0.071153864 -0.036042478 -0.09982052 0.045102276 -0.22110347 0.012021076 0.229496
-0.08135994 -0.3072727 -0.14805815 -0.21266706 -0.05023019 -0.23374504 0.10296657 -0.17626041
-0.0973119 -0.19591671 -0.1879832 -0.122587554 -0.18633787 -0.11794635 0.23259744 0.046815384
00000000: 5d55 5dbd da1b 72be b61a 0bbd 41e3 0f3e
00000010: 7dca 0a3c 75ea 8fbc 60d6 95be d9ed b7bd
00000020: bd78 b1bd 1eb9 91bd 47a1 13bd b36e ccbd
00000030: 2abd 383d f368 62be 0cf4 443c 0001 6b3e
00000040: 0aa0 a6bd d952 9dbe 8e9c 17be 65c5 59be
00000050: 2cbe 4dbd dc5a 6fbe 23e0 d23d 9c7d 34be
00000060: 764b c7bd 649e 48be ab7e 40be 2f0f fbbd
00000070: 5bcf 3ebe db8d f1bd 062e 6e3e 7dc1 3f3d

feature_extractor.dense_blocks.0.0.dense_layers.0.point_conv.conv_delta.1.running_mean f4 [32]
-0.18936168 0.30488682 0.089492075 0.48098138 -0.16312204 0.072285995 0.30604133 0.18896198
-0.023676304 0.5739056 0.3644942 -0.2890117 -0.22537275 -0.10028497 -0.56254905 0.23969012
-0.36030036 -0.25553447 -0.14373711 -0.060715333 -0.263439 0.08276514 -0.542831 0.19709861
-0.12408135 0.07604771 0.49757835 -0.28376317 -0.25955406 -0.026946178 -0.17541686 -0.35713914
00000000: 07e8 41be 201a 9c3e 9f47 b73d 3143 f63e
00000010: 7709 27be ae0a 943d 73b1 9c3e 407f 413e
00000020: cff4 c1bc 7aeb 123f fc9e ba3e 57f9 93be
00000030: 1dc8 66be 3562 cdbd 3703 10bf 5471 753e
00000040: 4a79 b8be 6ad5 82be d22f 13be a4b0 78bd
00000050: 7ae1 86be c580 a93d f9f6 0abf 38d4 493e
00000060: 5d1e febd e7be 9b3d 97c2 fe3e 6849 91be
00000070: 45e4 84be 3bbe dcbc 7aa0 33be f1da b6be

feature_extractor.dense_blocks.0.0.dense_layers.0.point_conv.conv_delta.1.running_var f4 [32]
0.0008232553 0.00014418068 0.0006739468 0.0007533337 0.00046566283 0.0005935674 0.0007528901 0.0014446495
6.241113e-05 0.0008490475 0.0007653924 0.00096306315 0.00050886604 0.0010138554 0.00032877026 0.00031246594
0.0005692627 0.00047502003 0.0007654372 0.0005543129 0.000446342 8.660016e-05 0.00051572005 0.0009317407
0.00072574476 0.00057259883 0.0007116521 0.00043467584 0.00040766978 0.00074186514 0.00044604857 0.00072368706
00000000: bacf 573a 352f 1739 ceab 303a 5e7b 453a
00000010: 3524 f439 a299 1b3a 995d 453a 655a bd3a
00000020: b8e2 8238 9d92 5e3a 9da4 483a 1376 7c3a
00000030: 6c65 053a 58e3 843a cc5e ac39 78d2 a339
00000040: 933a 153a 1c0c f939 9fa7 483a 4f4f 113a
00000050: 0203 ea39 1b9d b538 6331 073a 0f40 743a
00000060: e83f 3e3a 751a 163a 2a8e 3a3a 34e5 e339
00000070: 83bc d539 ba79 423a a0db e939 d1b5 3d3a

feature_extractor.dense_blocks.0.0.dense_layers.0.point_conv.conv_feats.0.weight f4 [32, 32, 1, 1]
-0.08161038 0.12039816 0.111462794 0.04726022 -0.13459584 -0.06068111 0.04519623 -0.1883698
-0.02999604 -0.044228464 0.11979907 0.13341439 -0.019075733 -0.1746206 -0.2566607 -0.21260166
-0.08106441 -0.097545765 -0.09447687 -0.28724134 0.09544849 -0.13319306 0.1977415 -0.09152038
-0.21369554 0.010398441 0.090302 -0.12467065 -0.1609288 -0.16234414 0.13693114 -0.15174049
0.10295709 0.06611848 0.092434354 0.1873384 0.08853976 -0.069222085 0.007700999 0.021102186
0.15110047 0.147534 -0.21152432 0.12614097 0.017371148 -0.020222578 -0.18176413 0.08862465
-0.055144027 -0.19690841 0.2288064 0.16938068 0.107387364 -0.19925138 -0.009744408 -0.21944289
0.10811436 -0.08481376 -0.08937669 -0.036840655 0.05502865 0.082185216 0.11324095 0.16479193
0.1155285 -0.13846801 -0.2742365 -0.058065776 -0.016725836 -0.19948816 0.09388989 0.01763148
0.019855984 0.09858882 -0.12427145 0.1216403 0.24861357 0.12206706 0.09611934 0.08221582
-0.20193301 0.14241405 -0.24155667 0.04269201 -0.042430267 0.035983633 0.020769684 0.1558647
0.19259779 -0.28609547 0.100183316 0.11045534 0.011733936 0.05776535 0.14252666 0.08526098
-0.2232921 -0.014452692 -0.09953845 -0.0521754 0.07634462 0.088156804 -0.27689102 -0.11048511
-0.2817206 -0.4262039 0.11870713 -0.5041735 -0.12549135 -0.031349905 -0.015707655 -0.08745855
0.06856854 -0.107065305 -0.03364157 -0.094238006 -0.02563368 -0.005910671 -0.09138652 0.05340079
0.029812787 -0.012681533 -0.07054029 0.051526014 0.046405148 -0.03506343 -0.22499472 -0.17729218
0.0951248 -0.07032086 -0.023777204 -0.07615624 -0.013942774 -0.062025174 0.048851267 -0.10609139
-0.10018303 -0.22209513 -0.030549508 -0.105167374 -0.108908266 -0.078790754 -0.2359172 -0.1982318
-0.19287603 -0.119711705 -0.082084045 0.014181284 -0.0700616 -0.1974686 -0.20831716 -0.10937478
-0.44283387 0.0650633 -0.14497554 0.07838923 -0.17153293 -0.11237759 0.07448245 -0.08885871
0.02550884 0.023541398 -0.11455114 0.14854975 -0.0027646597 -0.16966148 0.019249715 -0.005417471
-0.052992564 0.16386999 -0.22651531 0.14750442 0.046631493 -0.07494865 -0.10954421 -0.04137551
-0.10542976 0.14577225 -0.18108986 -0.07378682 -0.17233014 -0.12343401 0.16822681 -0.11211698
-0.009193424 0.023249466 -0.1460077 -0.17025794 -0.048352443 -0.16403472 0.23237082 0.10714034
0.06642691 -0.017000014 -0.16450718 -0.043594886 -0.117573 -0.25395617 0.066263 0.09992171
0.058689248 0.018123303 0.030466214 0.010070115 0.25559 -0.12918957 -0.08920504 0.09797613
0.07519979 -0.08846672 -0.33779857 0.0130589865 0.0008073406 0.21963774 -0.15731305 -0.07381431
0.14410964 -0.4264585 0.25630617 0.001337067 -0.042148553 0.07507589 -0.07045597 -0.09828151
0.16408095 0.106063195 0.011124318 0.11467951 -0.1857624 -0.090166055 0.1971891 -0.013282241
0.06165013 0.18035927 -0.00065078924 -0.014488894 0.045292873 0.062194176 -0.14660133 -0.05636097
-0.12416299 0.08734138 -0.2338093 -0.20108749 -0.112791754 -0.024727263 -0.0039747683 -0.034186453
0.010714305 -0.05317962 0.013518106 -0.25056472 -0.184076 0.0893856 0.07873492 0.08578318
00000000: 5823 a7bd 4f93 f63d 9b46 e43d ef93 413d
00000010: 7ed3 09be c18c 78bd af1f 393d 03e4 40be
00000020: 41ba f5bc e828 35bd 3759 f53d c89d 083e
00000030: b644 9cbc becf 32be 0869 83be 40b4 59be
00000040: 1905 a6bd 13c6 c7bd 177d c1bd 4c11 93be
00000050: 7f7a c33d c363 08be bf7c 4a3e 096f bbbd
00000060: 01d3 5abe 395e 2a3c 41f0 b83d 5353 ffbd
00000070: 85ca 24be 8b3d 26be ad37 0c3e dc61 1bbe
00000080: 2bdb d23d 2069 873d 394e bd3d a3d5 3f3e
00000090: 5554 b53d 4fc4 8dbd a958 fc3b 7ede ac3c
000000a0: 15ba 1a3e 2713 173e d599 58be 192b 013e
000000b0: f04d 8e3c d2a9 a5bc 6020 3abe d780 b53d
000000c0: b4de 61bd 5ca2 49be 3a4c 6a3e 2172 2d3e
000000d0: e8ed db3d 8e08 4cbe 02a7 1fbc a3b5 60be
000000e0: 106b dd3d d6b2 adbd 200b b7bd 3ae6 16bd
000000f0: b965 613d b950 a83d dfea e73d 37bf 283e
00000100: 359a ec3d 8fca 0dbe ba68 8cbe 61d6 6dbd
00000110: 9f04 89bc a046 4cbe 5849 c03d e56f 903c
00000120: 04a9 a23c efe8 c93d 0882 febd 8d1e f93d
00000130: 8e94 7e3e 4bfe f93d 37da c43d c560 a83d
00000140: 87c7 4ebe fdd4 113e a25a 77be d1dd 2e3d
00000150: 5ccb 2dbd 9363 133d 2f25 aa3c ff9a 1f3e
00000160: 5b38 453e 1b7b 92be e92c cd3d 6936 e23d
00000170: b23f 403c 5c9b 6c3d 82f2 113e 4f9d ae3d
00000180: afa6 64be fcca 6cbc d1da cbbd dfb5 55bd
00000190: 915a 9c3d 8e8b b43d a9c4 8dbe 0446 e2bd
000001a0: af3d 90be 6637 dabe b91c f33d 8411 01bf
000001b0: ce80 00be c268 00bd 57ad 80bc 781d b3bd
000001c0: aa6d 8c3d 0e45 dbbd becb 09bd dbff c0bd
000001d0: b9fd d1bc 4dae c1bb db28 bbbd c9ba 5a3d
000001e0: f239 f43c 34c6 4fbc 6d77 90bd f10c 533d
000001f0: 5313 3e3d ac9e 0fbd 0465 66be 158c 35be
00000200: cbd0 c23d 6204 90bd 69c8 c2bc cef7 9bbd
00000210: 3c70 64bc 1c0e 7ebd 4418 483d 7146 d9bd
00000220: c32c cdbd e86c 63be f642 fabc fe61 d7bd
00000230: 4c0b dfbd 0c5d a1bd 4794 71be 47fd 4abe
00000240: 4b81 45be 692b f5bd ae1b a8bd 9e58 683c
00000250: 757c 8fbd 3535 4abe 1851 55be e2ff dfbd
00000260: 1fbb e2be e83f 853d 7874 14be 888a a03d
00000270: 54a6 2fbe 3926 e6bd 418a 983d 8efb b5bd
00000280: eaf7 d03c e4d9 c03c ca99 eabd 6d1d 183e
00000290: 4b2f 35bb bdbb 2dbe 94b1 9d3c 0a85 b1bb
000002a0: bb0e 59bd 89cd 273e a1f3 67be 660b 173e
000002b0: aa00 3f3d ae7e 99bd b758 e0bd 5e79 29bd
000002c0: 8feb d7bd 5245 153e 9f6f 39be 8b1d 97bd
000002d0: 5077 30be f8ca fcbd a643 2c3e 969d e5bd
000002e0: 04a0 16bc aa75 be3c 0b83 15be 1958 2ebe
000002f0: 360d 46bd b8f8 27be 9ef2 6d3e 656c db3d
00000300: d50a 883d 9d43 8bbc 9274 28be 8d90 32bd
00000310: 1dca f0bd 8b06 82be e5b4 873d c1a3 cc3d
00000320: 2364 703d 5277 943c 4894 f93c 20fd 243c
00000330: b1dc 823e 454a 04be 22b1 b6bd b6a7 c83d
00000340: 5902 9a3d 0a2e b5bd eff3 acbe 5cf5 553c
00000350: b6a3 533a b7e8 603e ac16 21be f52b 97bd
00000360: 7a91 133e c558 dabe 903a 833e 8640 af3a
00000370: f6a3 2cbd 63c1 993d 384b 90bd d147 c9bd
00000380: d604 283e a937 d93d c642 363c 17dd ea3d
00000390: 8038 3ebe fba8 b8bd f0eb 493e c29d 59bc
000003a0: d984 7c3d 1ab0 383e ba99 2aba d362 6dbc
000003b0: 0585 393d 52bf 7e3d a91e 16be c3da 66bd
000003c0: 2a49 febd 0ae0 b23d b56b 6fbe e1e9 4dbe
000003d0: 5dff e6bd d490 cabc c63e 82bb 1807 0cbd
000003e0: 0d8b 2f3c e0d2 59bd 0c7b 5d3c 054a 80be
000003f0: 6b7e 3cbe cc0f b73d c63f a13d 18af af3d

feature_extractor.dense_blocks.0.0.dense_layers.0.point_conv.conv_feats.0.bias f4 [32]
0.13877317 -0.16851336 -0.024552446 -0.17869051 0.03395287 0.09614804 -0.092457116 -0.16929558
-0.153528 -0.10654005 -0.17054889 0.10352193 -0.14383349 -0.09206046 0.037822597 0.08822119
-0.15513538 0.124394275 -0.11030588 -0.07839239 -0.008705007 -0.07332687 -0.08194125 0.04655635
0.109391466 -0.1381286 -0.12564489 0.12794918 -0.08075566 -0.008999517 -0.011209365 -0.018773349
00000000: 8e1a 0e3e c48e 2cbe 3622 c9bc a5fa 36be
00000010: 2a12 0b3d 43e9 c43d 285a bdbd d25b 2dbe
00000020: 7236 1dbe ab31 dabd 5ea4 2ebe 4e03 d43d
00000030: 1649 13be 328a bcbd deeb 1a3d 50ad b43d
00000040: cfdb 1ebe 6dc2 fe3d 0de8 e1bd 308c a0bd
00000050: 729f 0ebc 662c 96bd d0d0 a7bd dfb1 3e3d
00000060: a208 e03d 9571 0dbe 0ea9 00be 1c05 033e
00000070: 3963 a5bd b672 13bc 7ca7 37bc 91ca 99bc

feature_extractor.dense_blocks.0.0.dense_layers.0.point_conv.conv_feats.1.weight f4 [32]
0.83668965 0.8522145 0.89126384 0.9293393 0.872123 0.95971197 0.9052534 1.0079961
0.86656886 0.99879605 0.91578346 0.9498104 0.87812203 0.90638876 0.9224211 0.7555465
0.86796665 0.9289611 0.94706327 0.9035795 0.87826025 0.9724473 0.8981824 0.90233344
0.84726095 0.9016011 0.9845698 0.9187127 0.9467537 0.95601124 0.84971786 0.8980537
00000000: 4b31 563f bb2a 5a3f de29 643f 2ee9 6d3f
00000010: 7443 5f3f afaf 753f b0be 673f 0406 813f
00000020: 75d7 5d3f 19b1 7f3f c970 6a3f c626 733f
00000030: 9bcc 603f 1809 683f ca23 6c3f 7f6b 413f
00000040: 1033 5e3f 65d0 6d3f bd72 723f fc50 673f
00000050: aad5 603f 4ef2 783f 48ef 653f 53ff 663f
00000060: 18e6 583f 54cf 663f c40c 7c3f c130 6b3f
00000070: 735e 723f 27bd 743f 1c87 593f d9e6 653f

feature_extractor.dense_blocks.0.0.dense_layers.0.point_conv.conv_feats.1.bias f4 [32]
0.042076677 0.23195212 0.3791949 0.69496375 0.38509744 0.14739364 0.24610949 0.18007097
0.41087177 0.23552512 0.41631684 0.056383517 0.60828876 -0.5212838 0.10538897 0.9124541
0.43016818 0.18489094 0.26576316 0.38732824 0.5217683 -0.12884201 0.59711 0.22952129
0.35053068 0.06763288 0.072673045 0.30686456 0.19222684 0.42214757 0.65133685 0.54599047
00000000: 9858 2c3d db84 6d3e d525 c23e 25e9 313f
00000010: 7e2b c53e 5cee 163e 2004 7c3e 8664 383e
00000020: c95d d23e 7f2d 713e 7b27 d53e 67f2 663d
00000030: d0b8 1b3f db72 05bf 2cd6 d73d 9896 693f
00000040: 013f dc3e 0d54 3d3e 1c12 883e e34f c63e
00000050: 9b92 053f 29ef 03be 33dc 183f a107 6b3e
00000060: c278 b33e 1b83 8a3d 9bd5 943d 5a1d 9d3e
00000070: 1dd7 443e ba23 d83e 03be 263f 08c6 0b3f

feature_extractor.dense_blocks.0.0.dense_layers.0.point_conv.conv_feats.1.running_mean f4 [32]
-0.46436727 -0.014783456 0.16932072 -1.0617115 -1.0736953 -0.31649432 -0.3056163 -0.371595
-0.91517603 0.6370397 -0.13743457 0.6837944 -1.1576493 0.8013641 0.03949858 -0.7544062
-1.0155027 -0.8186446 -0.033162132 -0.67871314 0.061396755 0.45557737 -0.57814807 0.7921815
0.4719201 0.5329588 -0.32035077 0.1421856 -0.35381278 0.035979096 -0.57920533 -0.3499726
00000000: 8cc1 edbe 4f36 72bc 6962 2d3e 2ae6 87bf
00000010: d96e 89bf 8b0b a2be bd79 9cbe b341 bebe
00000020: fa48 6abf 0915 233f a6bb 0cbe 260d 2f3f
00000030: da2d 94bf 3326 4d3f 43c9 213d c420 41bf
00000040: fefb 81bf b192 51bf 04d5 07bd 25c0 2dbf
00000050: 2a7b 7b3d 7041 e93e 8301 14bf 68cc 4a3f
00000060: 839f f13e fd6f 083f 0405 a4be 1a99 113e
00000070: f326 b5be d15e 133d cd46 14bf 9c2f b3be

feature_extractor.dense_blocks.0.0.dense_layers.0.point_conv.conv_feats.1.running_var f4 [32]
0.64705986 0.5196586 1.160475 2.9495578 0.7682527 0.8595992 0.6457216 0.81010205
1.5321424 0.73767096 0.996555 0.42975727 1.3479408 0.4050824 0.95965743 3.1296992
0.8229389 0.7064822 0.6535827 0.8388319 0.6146646 0.95940024 2.2220232 0.7455192
0.48874986 0.7099368 0.8942834 1.1891656 0.9387995 0.737133 1.7377717 1.595356
00000000: b7a5 253f 5908 053f 728a 943f 8ec5 3c40
00000010: 35ac 443f b10e 5c3f 034e 253f d962 4f3f
00000020: 3e1d c43f 01d8 3c3f 3a1e 7f3f 2509 dc3e
00000030: 5389 ac3f f666 cf3e 1cac 753f fe4c 4840
00000040: 20ac 523f 04dc 343f 3251 273f b0bd 563f
00000050: a95a 1d3f 419b 753f a135 0e40 59da 3e3f
00000060: 6c3d fa3e 6bbe 353f c2ef 643f 9436 983f
00000070: 2a55 703f c0b4 3c3f 4e6f de3f a034 cc3f

feature_extractor.dense_blocks.0.0.dense_layers.0.point_conv.post_conv.0.weight f4 [32, 32, 1, 1]
-0.16441672 0.07417701 -0.24440274 0.11885722 0.12208951 -0.15339743 0.19190413 -0.046694875
-0.10404075 -0.09321397 0.124640964 -0.07367153 0.029498916 -0.014654937 0.07427029 -0.28340182
0.03201295 -0.07209553 -0.098011985 0.1589497 0.122217044 -0.1086554 -0.43586504 0.0024692307
0.056587517 0.01720187 -0.1045973 -0.22954313 -0.32390636 0.06584074 -0.33836862 0.15235129
-0.16642538 -0.101838596 0.22927798 -0.22076453 0.12851478 -0.04868964 0.10972663 -0.3647526
0.079174094 -0.3114841 -0.04437466 -0.094573826 0.10768999 -0.08510708 -0.103334874 0.040236443
-0.050156884 0.18512656 -0.082422964 0.1322238 -0.058577627 0.16724287 0.035055324 0.060282867
0.1580938 0.08060696 0.025855277 -0.052754775 -0.0302574 -0.19623546 0.16890617 -0.08497641
0.115797274 -0.058012575 -0.21284975 -0.250623 -0.09548515 -0.006450313 0.23971336 0.06635943
-0.06341913 -0.09165009 0.049835574 -0.1263361 -0.27181336 0.093794644 -0.069689386 0.05688075
0.09096874 -0.19393806 0.07012167 -0.047001455 -0.36321095 -0.07586937 -0.123203434 -0.17043175
0.043379247 0.16159306 -0.17908232 0.17325708 -0.09485297 -0.055962887 -0.27974474 -0.2855886
0.14036353 -0.22455311 0.09496989 0.15056928 0.14720096 0.008761711 -0.12597375 -0.04902432
-0.09202539 -0.041757062 0.018994577 0.11080749 -0.40888643 -0.11034599 0.16703162 -0.028874833
0.014701619 -0.069209136 0.022394879 -0.089594424 -0.16540201 -0.022098234 0.18931709 -0.04010971
0.011198133 -0.13020645 -0.27949777 0.039810557 0.06053514 0.17517626 -0.37530568 -0.05165937
-0.14734092 -0.1640917 0.06090698 0.16954614 0.038560238 -0.074336626 -0.043675095 -0.16913
0.10671378 0.044167887 0.1857315 -0.18199731 -0.16651793 0.12268927 0.077692606 -0.19159025
0.0006504699 0.14935261 -0.21269977 -0.124361925 -0.21513213 0.10471995 0.18301128 -0.17075355
0.16976555 -0.15116607 0.12562165 0.033169825 0.14078306 -0.18634333 0.13420768 -0.28108996
-0.18967745 -0.397734 -0.07096539 0.12557401 0.0062043844 -0.23847382 0.2618147 -0.05771051
0.012873111 -0.059378456 0.025875306 -0.32621333 -0.19846837 0.047574263 0.14764367 -0.020808652
0.117883325 0.013765252 -0.12721898 -0.02931594 -0.020606007 -0.009807803 0.03205367 -0.05361805
-0.16343133 0.022590108 -0.056826398 0.14520508 0.077112064 -0.18107535 -0.067788206 -0.16770533
-0.041671887 -0.02740287 -0.017103063 -0.45014504 -0.48970369 0.18490188 0.12109278 0.021139584
0.18434954 -0.06784854 -0.09656388 0.09545992 -0.10240836 -0.2633634 -0.14067695 0.06519008
-0.09534866 -0.18438682 -0.09725389 -0.28457555 -0.09380179 -0.08847418 0.07672123 -0.23599118
-0.23476993 0.081374906 0.059834253 0.135101 0.010202497 -0.20398593 0.14305569 -0.21223913
0.04751528 -0.006552198 -0.15744816 -0.06109211 0.12775652 0.19480586 0.033815023 0.05538881
-0.10108563 0.06350047 -0.18505976 -0.031722065 -0.08315266 0.07574111 -0.045734994 0.15112418
-0.032056954 0.036607478 -0.063640215 0.014918331 0.11497753 -0.14222337 -0.20132016 -0.02228485
0.003885052 0.04205117 -0.23013803 -0.015268287 -0.08860486 0.06706768 -0.2843372 0.15462837
00000000: db5c 28be 1eea 973d b644 7abe 6a6b f33d
00000010: 110a fa3d 3714 1dbe 8482 443e 2043 3fbd
00000020: 5113 d5bd f7e6 bebd c343 ff3d 19e1 96bd
00000030: b6a7 f13c 431b 70bc 061b 983d 0b1a 91be
00000040: 0320 033d d2a6 93bd 82ba c8bd b6c3 223e
00000050: ee4c fa3d b986 debd b429 dfbe d1d2 213b
00000060: 50c8 673d f0ea 8c3c 1c37 d6bd 5b0d 6bbe
00000070: 0ed7 a5be 83d7 863d a73e adbe fa01 1c3e
00000080: 6a6b 2abe c190 d0bd d9c7 6a3e 1910 62be
00000090: 6199 033e ca6e 47bd 5bb8 e03d dac0 babe
000000a0: 0726 a23d d87a 9fbe 34c2 35bd ecaf c1bd
000000b0: 928c dc3d 9f4c aebd 3ca1 d3bd f8ce 243d
000000c0: 4e71 4dbd d191 3d3e 5fcd a8bd ad65 073e
000000d0: 18ef 6fbd b741 2b3e 2c96 0f3d 2beb 763d
000000e0: 57e3 213e 4315 a53d 72ce d33c 6415 58bd
000000f0: 5ede f7bc f3f1 48be bdf5 2c3e 1d08 aebd
00000100: 1f27 ed3d 989e 6dbd 49f5 59be a851 80be
00000110: b88d c3bd 265d d3bb 6b77 753e 74e7 873d
00000120: e4e1 81bd 0bb3 bbbd 6320 4c3d 405e 01be
00000130: 1f2b 8bbe 6817 c03d 4fb9 8ebd cafb 683d
00000140: d24d ba3d b397 46be f39b 8f3d 9984 40bd
00000150: c9f6 b9be 6661 9bbd 1552 fcbd a985 2ebe
00000160: 70ae 313d a778 253e 5b61 37be 4e6a 313e
00000170: 4642 c2bd 5739 65bd b43a 8fbe ab38 92be
00000180: 75bb 0f3e 40f1 65be 937f c23d d52e 1a3e
00000190: d9bb 163e 488d 0f3c 43ff 00be bacd 48bd
000001a0: cf77 bcbd 7409 2bbd 849a 9b3c 0aef e23d
000001b0: 9059 d1be 14fd e1bd 560a 2b3e ea8a ecbc
000001c0: 0fdf 703c 85bd 8dbd 7775 b73c 487d b7bd
000001d0: 255f 29be 5b07 b5bc 57dc 413e 144a 24bd
000001e0: 6078 373c d754 05be 551a 8fbe 6510 233d
000001f0: b2f3 773d 6861 333e 1128 c0be c798 53bd
00000200: 8ae0 16be a807 28be 9979 793d 819d 2d3e
00000210: 57f1 1d3d cd3d 98bd a8e4 32bd 6a30 2dbe
00000220: c18c da3d 63e9 343d 6630 3e3e 815d 3abe
00000230: ad83 2abe 8344 fb3d 4d1d 9f3d 3c30 44be
00000240: 4c84 2a3a e4ef 183e f8cd 59be 77b1 febd
00000250: 994b 5cbe 6a77 d63d 4f67 3b3e 05da 2ebe
00000260: 05d7 2d3e 47cb 1abe f6a2 003e 15dd 073d
00000270: 6f29 103e c9d0 3ebe bd6d 093e 06eb 8fbe
00000280: ce3a 42be caa3 cbbe 4d56 91bd 7996 003e
00000290: 264e cb3b 7b32 74be 940c 863e db61 6cbd
000002a0: bee9 523c d336 73bd 73f8 d33c 6f05 a7be
000002b0: 4b3b 4bbe 3bdd 423d e72f 173e e876 aabc
000002c0: d06c f13d a787 613c b145 02be fb27 f0bc
000002d0: eecd a8bc e8b0 20bc b64a 033d 9a9e 5bbd
000002e0: 8b5a 27be e40e b93c ccc2 68bd a4b0 143e
000002f0: eeec 9d3d d16b 39be 8bd4 8abd f2ba 2bbe
00000300: 24b0 2abd fc7b e0bc b91b 8cbc 6979 e6be
00000310: 71ba fabe eb56 3d3e 7eff f73d ec2c ad3c
00000320: 20c6 3c3e 2df4 8abd 49c3 c5bd 7e80 c33d
00000330: 79bb d1bd 91d7 86be 9e0d 10be 6082 853d
00000340: 2946 c3bd e6cf 3cbe 0c2d c7bd e3b3 91be
00000350: 271b c0bd f331 b5bd 0520 9d3d aca7 71be
00000360: 8767 70be e3a7 a63d c314 753d eb57 0a3e
00000370: 6028 273c b0e1 50be 317d 123e 3755 59be
00000380: 629f 423d d2b3 d6bb 173a 21be b83b 7abd
00000390: 9bd2 023e 307b 473e 9f81 0a3d 60df 623d
000003a0: fc05 cfbd 890c 823d 4e80 3dbe ffee 01bd
000003b0: f14b aabd 281e 9b3d 9e54 3bbd 4cc0 1a3e
000003c0: 274e 03bd b9f1 153d cd55 82bd 046c 743c
000003d0: 5779 eb3d 01a3 11be df26 4ebe b88e b6bc
000003e0: 5b9c 7e3b d93d 2c3d 4ea9 6bbe d627 7abc
000003f0: 7776 b5bd c85a 893d a594 91be e656 1e3e

feature_extractor.dense_blocks.0.0.dense_layers.0.point_conv.post_conv.0.bias f4 [32]
-0.19789231 -0.034816746 0.1611094 0.07794387 -0.050120134 0.0887122 0.07053327 0.06690552
0.09750184 0.0700402 -0.110003 0.0027770072 -0.1417882 0.0060843644 -0.14512172 0.030645797
0.19543797 0.09214934 0.1150386 0.054162357 0.10480015 -0.12985529 -0.014471974 -0.12801445
-0.09802084 -0.06994623 0.07338778 -0.12893112 -0.17976385 -0.09390432 0.047052987 -0.105456844
00000000: 48a4 4abe 019c 0ebd ddf9 243e 09a1 9f3d
00000010: c54a 4dbd beae b53d bf73 903d c305 893d
00000020: 0baf c73d 3d71 8f3d 4149 e1bd 73fe 353b
00000030: ed30 11be 595f c73b ca9a 14be e50c fb3c
00000040: e420 483e cbb8 bc3d 5c99 eb3d 59d9 5d3d
00000050: 76a1 d63d c9f8 04be dc1b 6dbc 3816 03be
00000060: 26bf c8bd f83f 8fbd 554c 963d 8506 04be
00000070: 0414 38be e850 c0bd a2ba 403d c2f9 d7bd

feature_extractor.dense_blocks.0.0.dense_layers.0.point_conv.post_conv.1.weight f4 [32]
0.97715056 0.78206813 0.7668798 0.90982586 0.7700384 0.8527437 0.79908365 0.7827485
0.9852321 1.0096134 0.8053808 0.9677743 0.866723 0.6679844 0.84340715 0.984138
0.85072845 0.8083368 0.723213 0.91265553 0.6962615 0.9883629 0.6695367 0.8761839
0.63264066 0.9194051 1.0949998 0.8443614 0.7515905 0.7411959 0.9269703 0.89924604
00000000: 8a26 7a3f 9e35 483f 3c52 443f 59ea 683f
00000010: 3d21 453f 694d 5a3f bf90 4c3f 3562 483f
00000020: 2c38 7c3f 033b 813f 702d 4e3f 0ec0 773f
00000030: 8fe1 5d3f 0701 2b3f 88e9 573f 78f0 7b3f
00000040: 57c9 593f 29ef 4e3f 7d24 393f cba3 693f
00000050: 323e 323f 5a05 7d3f c266 2b3f 974d 603f
00000060: bdf4 213f 225e 6b3f f428 8c3f 1228 583f
00000070: 3c68 403f 04bf 3d3f ed4d 6d3f fd34 663f

feature_extractor.dense_blocks.0.0.dense_layers.0.point_conv.post_conv.1.bias f4 [32]
-0.29308403 0.042431608 -0.250844 -0.13270257 -0.3595494 -0.072157055 -0.18137653 -0.20281565
0.022904027 -0.089975916 -0.14688915 0.02446707 0.0103378035 -0.50522715 -0.06768869 0.012676753
-0.20634875 -0.36027762 -0.20797923 -0.17585057 -0.3398779 0.029921755 -0.5138408 -0.19818746
-0.45526063 -0.1011408 -0.03513317 -0.3197303 -0.90112644 -0.31277338 -0.20051825 0.12910774
00000000: 1c0f 96be c4cc 2d3d a06e 80be 2fe3 07be
00000010: dc16 b8be 14c7 93bd c5ba 39be e8ae 4fbe
00000020: 3aa1 bb3c 4b45 b8bd 1c6a 16be 2a6f c83c
00000030: e45f 293c 9156 01bf 5ea0 8abd 28b2 4f3c
00000040: 164d 53be 4f76 b8be 82f8 54be 2c12 34be
00000050: 7a04 aebe 781e f53c 128b 03bf a7f1 4abe
00000060: ec17 e9be e822 cfbd cde7 0fbd b1b3 a3be
00000070: 39b0 66bf d523 a0be a854 4dbe d234 043e

feature_extractor.dense_blocks.0.0.dense_layers.0.point_conv.post_conv.1.running_mean f4 [32]
-0.6651465 -0.116298586 -0.44998208 -0.13576674 -0.20150098 -0.17900236 -0.41050237 -0.078215584
-0.29917344 -0.58822775 -0.5843102 -0.46749637 -0.3349725 0.46386406 -0.3997278 -0.04032569
-0.014345044 -0.1394513 -0.2487909 -0.5057096 0.11419611 -0.42418694 0.087507956 -0.6853184
-0.33560932 -0.54857343 -0.35647118 -0.46383843 -0.16714545 -0.41429228 -0.46539903 -0.3824225
00000000: 0b47 2abf f42d eebd 0d64 e6be 7006 0bbe
00000010: 4656 4ebe 654c 37be 5e2d d2be 7e2f a0bd
00000020: 432d 99be 1896 16bf 5a95 15bf af5b efbe
00000030: 8481 abbe 977f ed3e 1fa9 ccbe 8d2c 25bd
00000040: 7a07 6bbc 52cc 0ebe 0bc3 7ebe 2f76 01bf
00000050: a6df e93d 082f d9be 5f37 b33d 0771 2fbf
00000060: fcd4 abbe 4f6f 0cbf 6483 b6be 3b7c edbe
00000070: 2d28 2bbe 1e1e d4be c848 eebe e2cc c3be

feature_extractor.dense_blocks.0.0.dense_layers.0.point_conv.post_conv.1.running_var f4 [32]
0.4200794 0.4329778 0.48959395 0.40692905 0.49197257 0.27885222 0.7800288 0.31689376
0.41893527 0.6021806 0.43603274 0.51111454 0.5626647 0.34529617 0.5476844 0.43658015
0.5502862 0.37042633 0.31981584 0.65317774 0.31012803 0.27674934 0.33687478 0.54106236
0.24428785 0.17997892 0.38587502 0.42841592 0.17318958 0.35538188 0.33931065 0.45911914
00000000: a614 d73e 44af dd3e 0fac fa3e 0159 d03e
00000010: d4e3 fb3e b8c5 8e3e f8af 473f e63f a23e
00000020: af7e d63e 8228 1a3f af3f df3e 67d8 023f
00000030: cb0a 103f a9ca b03e 0b35 0c3f 6f87 df3e
00000040: 8edf 0c3f 85a8 bd3e e7be a33e a836 273f
00000050: 1ac9 9e3e 17b2 8d3e da7a ac3e 1083 0a3f
00000060: 9826 7a3e 654c 383e 6991 c53e 5559 db3e
00000070: 9c58 313e 9df4 b53e 20ba ad3e aa11 eb3e

feature_extractor.dense_blocks.0.0.dense_layers.1.conv_bottle.0.weight f4 [32, 64, 1]
0.039880034 0.061535504 -0.072946705 -0.08197525 0.042415585 -0.03732994 0.04205105 0.047798824
-0.06543475 0.01072273 -0.06797541 -0.079100125 0.024195137 -0.1612002 0.101285964 0.07343329
-0.028656922 -0.11476998 0.004573721 0.106799915 0.06778403 0.07227607 0.009220022 0.042589866
-0.08256704 0.10385335 0.11394016 0.0329837 -0.14111526 0.14498611 -0.08715239 -0.017636122
-0.02254996 -0.023499148 0.0360838 -0.14669667 0.045054223 0.08747812 -0.022664499 -0.30032185
-0.025710123 -0.019152798 -0.018439787 0.057469536 -0.2719728 -0.11934915 -0.09311595 0.06902951
0.0006536792 0.026033003 0.010358388 0.028830642 0.10705246 0.038942304 0.18234438 -0.08513276
0.007010367 -0.13717273 0.10371553 0.13255404 0.2125254 0.124564774 -0.048827376 0.10553931
-0.0065004504 0.17230661 0.036312185 0.014265815 0.15809424 -0.0061168964 -0.07615825 -0.043864697
-0.05316155 -0.011385085 0.056736387 -0.0038096637 0.021012958 0.014679372 -0.084337205 0.00579122
0.012796586 -0.0016488123 0.15377425 -0.038462058 0.035700914 0.077039 0.18696816 -0.016988678
-0.093363605 -0.08605265 0.11537117 0.015400676 -0.051536445 -0.09768934 0.05294936 0.06452117
-0.10018175 0.12427972 -0.03129581 -0.11905839 0.057272993 0.023140358 0.0037507692 -0.10997494
-0.02728399 -0.02239563 0.10412647 0.09990477 -0.12962285 -0.043188117 -0.012818868 -0.042554058
-0.020434488 -0.14503962 0.03587705 0.027035607 0.16481869 -0.05062878 0.113400504 0.10834547
0.06423294 0.050721362 -0.109640956 -0.00041198303 0.2468134 0.18242314 -0.20977823 -0.0088701015
0.079417735 -0.06300015 -0.12104393 0.13745765 -0.17436214 0.16055657 0.10019751 -0.008709623
0.08520826 -0.13145943 -0.05545031 0.22133431 0.08234084 0.025416726 0.07565822 0.08121001
0.101992875 0.1870971 0.31712958 -0.026167305 0.02821707 -0.14522877 0.066502005 0.042425945
0.06607437 0.07762144 0.089925565 -0.04477518 0.0020710127 0.106485054 0.26764846 0.08923799
0.02440131 0.09094155 -0.010671136 -0.085666835 0.14170006 -0.04326606 0.016636154 -0.0015716256
-0.04035276 -0.011955798 0.08768573 -0.0033509335 0.08315154 -0.105095156 0.05521602 -0.013470331
0.018873082 -0.15523793 -0.021571582 0.010338801 0.08644636 0.05235574 0.27585527 -0.021323692
0.23251414 0.028957834 0.12625173 -0.036175705 0.29501912 0.06581592 0.023308298 0.0022574873
0.07652532 -0.0721592 -0.14266682 -0.0067183035 0.09389384 -0.091565326 -0.033942726 -0.077109285
-0.096183 -0.11878984 -0.12176207 -0.120503 -0.02516739 -0.0017638683 -0.18273705 -0.16325977
-0.041564487 -0.122056894 -0.22388361 0.03689425 0.00794404 -0.12304168 0.054231193 -0.10522788
0.09588059 -0.23104243 -0.04650298 -0.14829876 -0.11608682 -0.13269606 0.119812414 -0.100715205
0.099491276 0.20492357 0.004626974 -0.06528964 -0.014642558 0.13245411 -0.056023475 0.0067864847
-0.0009873217 -0.28849047 0.03254193 -0.019886285 -0.098714 0.08319733 -0.14793156 0.1851338
-0.015552784 0.033869583 0.08162241 0.045781735 0.10488571 0.052286647 0.020045504 -0.09724533
0.08992316 0.07671872 -0.06622835 0.2729096 0.022486355 0.011367555 0.11429142 0.026980361
00000000: 3f59 233d a70c 7c3d 1565 95bd a4e2 a7bd
00000010: f7bb 2d3d 47e7 18bd b93d 2c3d b3c8 433d
00000020: a702 86bd 64ae 2f3c b136 8bbd 3fff a1bd
00000030: e134 c63c aa11 25be 046f cf3d 3164 963d
00000040: ecc1 eabc 860c ebbd 27df 953b eab9 da3d
00000050: 5bd2 8a3d 7a05 943d 930f 173c b672 2e3d
00000060: e918 a9bd 11b1 d43d 7559 e93d eb19 073d
00000070: 8580 10be 3d77 143e f47c b2bd a179 90bc
00000080: b2ba b8bc 4981 c0bc 9bcc 133d a737 16be
00000090: c78a 383d bb27 b33d e6aa b9bc c9c3 99be
000000a0: 099e d2bc 54e6 9cbc 090f 97bc 2d65 6b3d
000000b0: 0540 8bbe 546d f4bd 93b3 bebd 585f 8d3d
000000c0: ab5b 2b3a 2a43 d53c 3ab6 293c 3d2e ec3c
000000d0: 523e db3d f781 1f3d 7cb8 3a3e 165a aebd
000000e0: 38b7 e53b 0277 0cbe cf68 d43d 3fbc 073e
000000f0: 42a0 593e d11b ff3d 37ff 47bd fe24 d83d
00000100: bb01 d5bb 2571 303e 16bc 143d 2abb 693c
00000110: 75e3 213e 3f70 c8bb dbf8 9bbd 78ab 33bd
00000120: edbf 59bd 8288 3abc 6a64 683d 8dab 79bb
00000130: 5e23 ac3c c081 703c fcb8 acbd 46c4 bd3b
00000140: c6a8 513c f61c d8ba ff76 1d3e 648a 1dbd
00000150: 1f3b 123d a0c6 9d3d 9574 3f3e d72b 8bbc
00000160: 6b35 bfbd 5f3c b0bd b847 ec3d 1e53 7c3c
00000170: e117 53bd 5911 c8bd 6ee1 583d ad23 843d
00000180: 172c cdbd 5e86 fe3d 0930 00bd e3d4 f3bd
00000190: 1697 6a3d d990 bd3c 77cf 753b 8b3a e1bd
000001a0: ad82 dfbc 0a77 b7bc 4240 d53d df9a cc3d
000001b0: dabb 04be 06e6 30bd 3b06 52bc 2a4d 2ebd
000001c0: 3a66 a7bc 4485 14be d0f3 123d c779 dd3c
000001d0: 3bc6 283e 2060 4fbd 863e e83d 3be4 dd3d
000001e0: 8f8c 833d 34c1 4f3d 708b e0bd 6dff d7b9
000001f0: a7bc 7c3e 22cd 3a3e 1bd0 56be e753 11bc
00000200: c4a5 a23d 3906 81bd e1e5 f7bd b3c1 0c3e
00000210: fd8b 32be f168 243e 5a34 cd3d ceb2 0ebc
00000220: ab81 ae3d 4d9d 06be dd1f 63bd 76a5 623e
00000230: 50a2 a83d bd36 d03c b2f2 9a3d 6f51 a63d
00000240: a4e1 d03d 6296 3f3e cf5e a23e d15c d6bc
00000250: 7c27 e73c dab6 14be 3432 883d d4c6 2d3d
00000260: 0052 873d fdf7 9e3d e52a b83d 2e66 37bd
00000270: d4b9 073b d614 da3d 3809 893e 68c2 b63d
00000280: 42e5 c73c 903f ba3d fdd5 2ebc 1872 afbd
00000290: d219 113e c137 31bd 8b48 883c 01ff cdba
000002a0: f048 25bd 40e2 43bc 9394 b33d 569b 5bbb
000002b0: 5b4b aa3d 213c d7bd 322a 623d aab2 5cbc
000002c0: b99b 9a3c b1f6 1ebe e3b6 b0bc 1364 293c
000002d0: ca0a b13d f972 563d e73c 8d3e 06af aebc
000002e0: 3018 6e3e fb38 ed3c 2248 013e fa2c 14bd
000002f0: bf0c 973e 7fca 863d 0bf1 be3c 5af2 133b
00000300: 4fb9 9c3d 34c8 93bd 4017 12be 3725 dcbb
00000310: 6a4b c03d 9a86 bbbd 8707 0bbd 79eb 9dbd
00000320: 98fb c4bd 1648 f3bd 645e f9bd 47ca f6bd
00000330: d82b cebc 9931 e7ba 6c1f 3bbe 922d 27be
00000340: 863f 2abd f7f8 f9bd bf41 65be 6d1e 173d
00000350: b827 023c 47fd fbbd 8721 5e3d b781 d7bd
00000360: 0b5d c43d 6396 6cbe e979 3ebd a1db 17be
00000370: edbe edbd 7ae1 07be 3660 f53d c643 cebd
00000380: 15c2 cb3d 7cd7 513e df9d 973b 93b6 85bd
00000390: 57e7 6fbc 0da2 073e df78 65bd 2961 de3b
000003a0: 0569 81ba 06b5 93be b04a 053d 90e8 a2bc
000003b0: 912a cabd 5d63 aa3d 5f7b 17be b793 3d3e
000003c0: 1bd1 7ebc d5ba 0a3d a629 a73d a185 3b3d
000003d0: 52ce d63d 862a 563d 7836 a43c 8f28 c7bd
000003e0: a229 b83d b41e 9d3d bba2 87bd cfba 8b3e
000003f0: 4e35 b83c fb3e 3a3c 9f11 ea3d eb05 dd3c

feature_extractor.dense_blocks.0.0.dense_layers.1.conv_bottle.0.bias f4 [32]
-0.105178945 0.024683526 0.07288548 -0.101303905 0.040995814 -0.057859946 0.09447009 0.04110221
-0.11894534 0.020853937 -0.11206536 0.046119127 -0.057953704 0.04026694 -0.11390948 -0.011627078
-0.07943658 -0.039699513 0.12161599 -0.004102876 0.030836685 0.044785507 -0.031630628 -0.09244284
-0.007997961 0.11071832 0.087187886 -0.07242136 0.015223988 0.10022816 -0.022866946 0.042670924
00000000: 0f68 d7bd 1b35 ca3c fc44 953d 6c78 cfbd
00000010: 3aeb 273d 8dfe 6cbd 8979 c13d ca5a 283d
00000020: 9d99 f3bd e0d5 aa3c 8682 e5bd 69e7 3c3d
00000030: dd60 6dbd f2ee 243d 6049 e9bd 807f 3ebc
00000040: a5af a2bd f59b 22bd ce11 f93d 6b71 86bb
00000050: 379d fc3c 0271 373d 1e8f 01bd ac52 bdbd
00000060: e109 03bc 49c0 e23d 908f b23d a651 94bd
00000070: 096e 793c 6c44 cd3d 7653 bbbc b5c7 2e3d

feature_extractor.dense_blocks.0.0.dense_layers.1.conv_bottle.1.weight f4 [32]
1.0649849 1.0524538 0.8764157 0.919092 0.9868088 1.1049244 0.8888347 0.7750169
0.8956026 1.0706146 0.9145739 1.1775031 1.0146017 0.83383524 0.9630272 0.8926005
0.81982535 1.0445896 1.1431487 0.94275993 0.9904123 0.9127015 0.912078 0.88627666
0.9894128 0.86918426 0.87327856 0.90558606 1.0586718 1.1447655 0.8355994 0.8919042
00000000: 6d51 883f ceb6 863f c85c 603f 9d49 6b3f
00000010: 809f 7c3f 2a6e 8d3f ac8a 633f 8267 463f
00000020: 3646 653f e609 893f 8421 6a3f 6cb8 963f
00000030: 78de 813f 3a76 553f f388 763f 7781 643f
00000040: 13e0 513f 1db5 853f b252 923f b758 713f
00000050: a98b 7d3f cea6 693f f27d 693f 07e3 623f
00000060: 284a 7d3f dc82 5e3f 2f8f 5f3f 7dd4 673f
00000070: 8f82 873f ad87 923f d8e9 553f d553 643f
